app/src/main/assets/model.tflite (tflite, 373172 bytes, 9 tensors)

sequential_1/conv2d_3/Conv2D/ReadVariableOp f4 [32, 11, 11, 4]
00000000: c125 21bc 8477 05bd e282 c2bc c5f3 d93c
00000010: f77c f4bb 71cd 87bc 7268 623c 8194 8d3c
00000020: 7b8b 55bc 1cf0 d23c 082e dcbc 7436 2e3d
00000030: d452 c43c 08df 23bd c952 093d c1f0 c03c
00000040: 242c c7bc 3e01 45bc 364e 0f3d ef0a bb3c
00000050: af30 783c 8687 d7bc 7818 483c 14ca 553c
00000060: 6010 0d3c 5742 7fbc 862a 033d d445 86bc
00000070: 1292 a63c 0779 13bd cfee 85bc 6736 003d
00000080: 917d 163b d39c 0abb 3937 22bd 68ca 6fbc
00000090: f6d7 b9bc 49e1 9bbc 03a6 e8bc 29c2 983c
000000a0: 609c 30bd a79a f73c a2a3 893c ef4b 923b
000000b0: 7164 c2bc 0293 e2bc 1eab 0cbc f42b 183a
000000c0: 1c35 7bbc 4d5d f63c 8f3f 263c 045c b23c
000000d0: 3e0e bcba 3262 1a3c 744a 063d 548a 23bc
000000e0: c130 4d3c b331 f7bc f120 643c 951b b4bc
000000f0: cda0 d53c 6f95 96bc 3693 1fbd 7773 88bc
00000100: 7589 d9bb 60c5 91bc ea54 36bc 9c4e fe3c
00000110: 956c d1bb 9463 8bbb ebac 8bbb 5e8e 113d
00000120: 6f0f 85bc 5545 c33c 4285 09bd e424 293d
00000130: 83b1 e23a bbcb 003d 5df8 83bc 9142 c8bc
00000140: 37f1 0cbd eed9 36bc f563 6bbc 2bd3 dc3c
00000150: d919 0c3a e264 77bb 381a deba 8241 26bc
00000160: ae96 01bc 9460 d13c 6573 f6bc a8d3 dbbc
00000170: 24fb 953a 7c36 81bc d576 8bbb 9edd e23c
00000180: e05b 23bd 3798 55bc b7fb e53a 8e59 dc3a
00000190: 656a 7b3c 276a a0bc 4ee8 bd3b e372 303c
000001a0: be77 06bd ec27 a4bc 4cbb 9b3c f0df 61bc
000001b0: 69c0 c0bc a86c ed3c de0b 66ba 291c 623c
000001c0: 5c73 ad3c 4271 913c 444e b8bc 861c 393c
000001d0: 8231 59bb 4197 acbb c298 bf3c 64df 48bc
000001e0: 67db 9e3c 1fe6 18bc 9207 313c d727 313d
000001f0: 0439 b2bc 318e dcbc d2f9 b5bc d13e 953c
00000200: 09d3 cd3c f3b2 06bd 57ee aa3c ee51 533c
00000210: 02d3 2bbd 86fb 8d3c b531 0a3c e56c 5abc
00000220: 8451 7bbc 4135 663c fcc1 dfbc 4c36 ff3c
00000230: b68d 47bc ff1d 2a3c be4e e43c 458d 633c
00000240: 8875 2abc f1a2 1bbd e8a6 b93c e16f df3c
00000250: 68b9 62bc 5381 df3b 41fe e83c 4b39 5dbc
00000260: cf4f 1bbd f0dd 1fbc 4303 b3bc 900c 283d
00000270: 596c a43b fefc 07bd 82c9 b83c dadb 2d3d
00000280: 371c 78bc 62a0 b6bb 04ba 0ebd 5570 dabb
00000290: 4b75 823c 79d0 abbc 941e 19bd ef38 3a3c
000002a0: cbc6 9c3c 754e f63c 87bf 80bc c403 8cbc
000002b0: cf27 cebc 67a4 92bc a03b bdbc 03b6 ea3c
000002c0: 79b2 00bc 8d55 76bc f674 e0b9 223b 663c
000002d0: 4606 2fbd 4321 56bc f2d3 21bd a8a2 98bc
000002e0: d40c e53a d5bb d93c e00f e4bb 0975 89bc
000002f0: cc2a bf3b 4621 85bc 4efa 56bc f43a 8fbc
00000300: ba6f 1d3c 3cd4 27bd 4658 8fbc a247 d73c
00000310: e315 bbbb 1873 07bd 3296 31bd 3731 fbbc
00000320: b90f 24bd 5d67 a0bc 9da5 4b3c 7671 c3bc
00000330: a5ab d13c 8a25 c0bc a3c9 cebb 00eb 0f3a
00000340: a8f4 133c 279b dc3c a67f 14bc 9bb5 a1bc
00000350: 8267 d8bb 05ef a03c f4a5 6ebc 7070 d7bc
00000360: 2b5d 5e3c 0f51 1ebb 4b44 ed3c 6a08 a4bc
00000370: 8c6a 0e3c b1f4 7e3c b573 973c 3b1c 423c
00000380: 313a 18bd 9b97 84bb 1cb6 c1ba ecd3 c5bb
00000390: 3519 263c f583 debc 564b 96bc 2c88 eabc
000003a0: 3919 593c 2d91 19bd 2735 8ebc f654 2a3b
000003b0: 7210 2bbd 97d0 bcba dcc5 d53c e5b2 da3c
000003c0: 2973 90bc 0d12 b7bc 802d a5bb 8eb3 073c
000003d0: c387 46bd 0163 4b3c 7cc7 afbc b49f 043d
000003e0: da0d 29ba f91a abbc cf38 4e3c 5c68 6fbc
000003f0: ed08 fbbc 7a11 33bd 7f3c 8c3c 1263 adba
-0.009835661 -0.032584682 -0.02374405 0.026605496 -0.007461186 -0.016577454 0.013818847 0.017282726
-0.013033743 0.025749259 -0.026877418 0.0425324 0.023965277 -0.04000762 0.033526216 0.0235523
-0.02431304 -0.012024222 0.034986697 0.022832362 0.015148326 -0.02630974 0.012212865 0.013048667
0.008609861 -0.0155797815 0.032022975 -0.016390719 0.020333324 -0.036004093 -0.016349224 0.031301882
0.0022963027 -0.0021150603 -0.039603446 -0.01463566 -0.022685986 -0.019028323 -0.028399473 0.01864727
-0.04311788 0.030225111 0.016801659 0.0044646184 -0.023729535 -0.02765799 -0.008585719 0.00058048894
-0.0153324865 0.030073786 0.0101469895 0.021772392 -0.0014347506 0.009422826 0.032785848 -0.00998171
0.012523831 -0.030175066 0.0139238695 -0.021985808 0.026077652 -0.018381802 -0.03895875 -0.01665662
-0.0066387006 -0.017794311 -0.0111286435 0.031043343 -0.006391118 -0.004253814 -0.004262557 0.035536163
-0.01624271 0.023836771 -0.03357435 0.041294947 0.0017295334 0.031444293 -0.01610964 -0.024445804
-0.034409728 -0.011160357 -0.014367093 0.026956161 0.0005344428 -0.003774934 -0.001694507 -0.010147454
-0.00790946 0.025558747 -0.030084321 -0.026834324 0.0011442644 -0.01577305 -0.0042561092 0.027693566
-0.03988254 -0.013036779 0.001754633 0.0016811357 0.015345191 -0.019581867 0.005795515 0.010769579
-0.03282904 -0.020038567 0.019010209 -0.013786301 -0.023529248 0.028982475 -0.0008775572 0.013800659
0.021173172 0.0177542 -0.022498257 0.011298304 -0.0033141081 -0.0052670543 0.02338827 -0.012260292
0.019391729 -0.009332209 0.010805028 0.043250885 -0.021755703 -0.02692327 -0.02221385 0.01821843
0.025125043 -0.032885503 0.020865602 0.0128979515 -0.04194928 0.01733185 0.008434703 -0.013331627
-0.015339259 0.014050783 -0.027314179 0.03115382 -0.012179783 0.010383128 0.027869578 0.013888662
-0.010403998 -0.03799719 0.022662595 0.027275028 -0.01383815 0.0068208366 0.02844155 -0.013502429
-0.03791791 -0.009757504 -0.021852141 0.041027606 0.005017799 -0.033200257 0.022557024 0.042445995
-0.015143446 -0.0055733183 -0.034845367 -0.006666223 0.01592507 -0.020973431 -0.037382677 0.011366113
0.01913776 0.030066708 -0.015716327 -0.01709164 -0.025165467 -0.017900659 -0.02309972 0.028651243
-0.007855051 -0.015035045 -0.00042811752 0.014052184 -0.042730592 -0.013069454 -0.039508767 -0.018632248
0.0017475137 0.026578823 -0.0069599003 -0.01677944 0.005833959 -0.016251218 -0.013121201 -0.017484166
0.009609157 -0.040973887 -0.017498147 0.026279274 -0.005709396 -0.033068746 -0.043356128 -0.030663116
-0.040054057 -0.019580537 0.012429622 -0.023857813 0.025594542 -0.0234554 -0.006310658 0.0005490035
0.009030499 0.026929451 -0.009063637 -0.019739917 -0.006604136 0.019645223 -0.0145659335 -0.026298732
0.013572018 -0.0024157201 0.028963229 -0.020023543 0.008692395 0.015561269 0.01848779 0.011847551
-0.03716487 -0.004046393 -0.0014779004 -0.006037226 0.010137846 -0.027162531 -0.01834647 -0.028629385
0.013250642 -0.037491966 -0.01735933 0.0025990582 -0.04176373 -0.0014405426 0.026095323 0.026696632
-0.017633038 -0.022347474 -0.0050408244 0.008282555 -0.048469316 0.012413741 -0.021457426 0.032378867
-0.00064489024 -0.020886885 0.012586786 -0.014612284 -0.030643905 -0.04371784 0.01711869 -0.0013228378

sequential_1/conv2d_3/Conv2D_bias f4 [32]
00000000: acf6 8bbc 1d0d 5abb 359e 243c c23d fe3b
00000010: 5de5 94bc 181d 7cbb e9da 2ebc 07a2 93bb
00000020: 8b4c e0bb 01eb 06bc 70de 21bc 6c5f 2f3b
00000030: 0696 1a3b 6dc6 eabb bb25 8a3c 4e5d f23b
00000040: d715 4ebc e83c e6bb a686 8e3b f0b6 ce3c
00000050: 29aa 51bc 0719 89bc 860c 15bc 2b08 873c
00000060: 4eb3 0a3c 8cc7 01bb fa34 1bbc dac4 f3bb
00000070: 88a8 37bc 64b0 8bbb 58b8 bfbb 82e3 b9bb
-0.017085396 -0.0033271976 0.010047485 0.007758827 -0.018175775 -0.003846949 -0.010672309 -0.004505399
-0.006845062 -0.00823474 -0.009879693 0.0026759757 0.0023587956 -0.0071647675 0.016863694 0.0073963767
-0.012578449 -0.0070263036 0.0043495474 0.025233716 -0.012796917 -0.016735567 -0.009097224 0.016483387
0.008465601 -0.0019802777 -0.00947308 -0.007439238 -0.011209615 -0.0042629708 -0.005850833 -0.005672873

sequential_1/conv2d_4/Conv2D/ReadVariableOp f4 [32, 7, 7, 32]
00000000: dbc9 ea3c fc86 1bbc 2d1d e4bc 61ea 9abd
00000010: 88b3 46bc 7c02 0a3d cb72 e7bc be80 bf3c
00000020: e839 12bd b38a 1bbc 2e67 f93b 6622 6dba
00000030: 8e84 18bd b042 06bd 14f3 d73b 30e1 d7bc
00000040: 2306 d83c 77a1 143d 4436 823c c3eb cbbb
00000050: 3c56 00bd 12ea 06bd 7897 9a3c 27c8 11bb
00000060: 2ed4 4dbd 0083 cdbc d019 433d 7a2a 803c
00000070: a8ea d8bc 5c40 17bd e1c4 e2bc 822c 3b3d
00000080: 66f8 97bc cb55 4c3c 115a afbb 5f36 e23c
00000090: a8fd 823c 0109 b23c 6866 17bd 319f 183d
000000a0: d733 343c cb23 05bc 341b 1abd 756b 54bc
000000b0: 2450 6b3c d3cf 2c3d 145f 433d 952c d3bc
000000c0: 96fb a63b c1b3 7c3a 707e 043d cb78 a0bc
000000d0: 00aa e63c f30d 14bc 26c5 d43c 43f7 43bd
000000e0: 759a 903c b6ff 56bc e799 1d3c 4484 d93c
000000f0: def4 e33c eb9b 18bc 7221 ffbb 5a1d 85bc
00000100: d9c9 cb3c daf3 3c3c 65a5 603c 5fba 0a3d
00000110: e6eb b23c ddf0 d7bb 99b5 5e3c dbe0 bfbc
00000120: 277b 0ebd dc51 1e3d 0040 88bc 66c6 0b3d
00000130: ac01 75b9 3965 423c 5e53 503c 9bee fbbc
00000140: dab8 25bd 7d3c d0bc d644 313c 272b 833c
00000150: d423 adbc 2c40 d93c db4a 113b 4464 4abd
00000160: 6293 04bd f4ae fc3c e816 00bd 24b0 ffbb
00000170: 371d a8bc 727b 193c 8960 2b3d ce53 9e3c
00000180: c4ef 213d 3e07 b7bc 7b6b 123d 352f dd3c
00000190: cbea f7bb d2d8 ea3c c85c 863b e70c b83c
000001a0: 2e25 9abc badc a2bc 1770 993c 3141 e4bc
000001b0: 6da4 06bd d8ef 20bd a1de 2c3d 704a 0abb
000001c0: 961e 383d 6d9e c53c 5364 4a3d 69ed 413c
000001d0: e785 d0bb 2852 5a3c b502 8fbc 3d06 193d
000001e0: 424f c23c dc35 1d3b d267 11bd 5338 60bc
000001f0: fb00 0439 197c c2bc 599c 4b3b 2da8 8fbc
00000200: 4c49 4cbb 4eba 103d 5df9 dbbc c320 2b3d
00000210: e565 463b 9367 03bd 4078 773b 08fc 02bd
00000220: ff02 cf3c 69f7 2e3d 1af6 8fbc dabe 80ba
00000230: 6a37 f23c 74b9 953c fc77 08bb 1076 2c3d
00000240: 9504 1a3d 12f5 953c 56fe eabc 3f68 6cbc
00000250: f416 2e3d 50b3 11bd cab7 5dbc d85d a8bc
00000260: 86cf 643c 7e0e b8bc a212 523c d731 ff3b
00000270: 0881 1d3d 83cb 263d c988 593c 8ab6 8d3c
00000280: 4205 b43a 70bf db3c 96e5 1e3d 5df9 773c
00000290: 31bd 183d bbbd 053c f317 4ebd 4f79 2d3c
000002a0: 1495 083d 62e3 063d a715 0cbd 7fc9 273d
000002b0: 4f32 ddbc a514 9a3c b273 5c3b 542f c83c
000002c0: c782 823c 92a5 d2bb 5ab9 ab3c d437 9dbc
000002d0: 2f18 1d3d 6b5e 8f3c 5531 283d 02ea ea3b
000002e0: da5e c53b 6a58 473d d7ac baba a05b 053d
000002f0: 2a57 fc3c d742 b43c 708b e0bc f975 1bbc
00000300: 344a c2bc 7477 d83b b7b1 62bc 8759 dd3c
00000310: 4e59 0cbd 27eb 053d 5a68 47bd 9d40 b0bc
00000320: c3d5 f93b e16e 9f3c 630e f4bc ba9f ff3c
00000330: d211 c73c e055 4dbc fbc7 3b3d 7a5f adbc
00000340: dabd 243d 06ac 193d aa6e 0ebd b82d eb3a
00000350: 0cc2 14bc 95f9 c93c a81c 84bc 0562 1e3c
00000360: b46e e5bc 84a5 433d 960e ec3b 13e7 e03b
00000370: fdab 2f3d 4062 193c 5a89 a6bc d5fd c73c
00000380: 4732 09bd d893 853c 1e08 64bd 5f69 74bd
00000390: 1ed0 ea3c 9124 043c 58b3 2dbd 8e72 4c3d
000003a0: acbe c33c a4d6 f7bb e74f a1bb 7b2a 62bd
000003b0: a320 4c3c 5f67 dbbc b555 5f3d 08ce f03c
000003c0: 914b 0dbb fb55 d33c 0196 75bc c5e5 97bd
000003d0: 976d ac3c 5131 92bb a57e 1dbc e784 a5bd
000003e0: 2b90 8dbd ebe4 733d 9467 04bd fa76 093d
000003f0: 8d3f 293d 2dab 763c cb91 ba38 129c 333c
0.028660705 -0.009492632 -0.027845943 -0.075642355 -0.0121277645 0.033693776 -0.02825298 0.023376819
-0.035699755 -0.009493518 0.007611177 -0.0009045958 -0.03723579 -0.032778442 0.0065902565 -0.026352495
0.026370114 0.036286797 0.015895016 -0.0062231733 -0.03133224 -0.03293807 0.018871054 -0.0022244544
-0.05025118 -0.02508688 0.04763204 0.015645254 -0.02647908 -0.036926612 -0.02768177 0.045696743
-0.018551063 0.0124716265 -0.005351313 0.027613817 0.015990093 0.021732809 -0.036962897 0.03726119
0.010998688 -0.0081262095 -0.0376236 -0.012965073 0.014362369 0.042190384 0.047698095 -0.025778094
0.0050959093 0.00096398225 0.032347143 -0.019588849 0.028157234 -0.009036529 0.025972914 -0.04784323
0.017651776 -0.01312249 0.009619213 0.026552327 0.027826723 -0.0093145175 -0.0077859694 -0.016249347
0.024876522 0.011532748 0.013711308 0.033869144 0.021841 -0.0065899924 0.013593101 -0.02342265
-0.034785416 0.038652286 -0.01663208 0.034124754 -0.00023365644 0.011864954 0.012715189 -0.030753424
-0.04045949 -0.025419468 0.010819634 0.016011788 -0.021135248 0.026519857 0.0022169861 -0.049412027
-0.032367118 0.030845143 -0.031271845 -0.00780298 -0.020521743 0.009367811 0.04184011 0.01932707
0.0395353 -0.02234232 0.035747033 0.02700005 -0.0075658313 0.028667841 0.004100416 0.02246709
-0.018816557 -0.019880641 0.018730206 -0.027863117 -0.032871652 -0.039291233 0.042204503 -0.0021101497
0.044951044 0.024123395 0.049412083 0.011836388 -0.0063636187 0.013325252 -0.017457346 0.037359465
0.023719434 0.0023988402 -0.0354994 -0.013685304 0.00012588866 -0.023740815 0.0031068532 -0.017536247
-0.0031171618 0.035333924 -0.026852304 0.04177929 0.0030273136 -0.032081198 0.0037760884 -0.031978637
0.025269983 0.042716417 -0.017573405 -0.0009822503 0.02956744 0.018276908 -0.002082347 0.04210478
0.037602026 0.018305335 -0.02868573 -0.014429151 0.04250236 -0.035571396 -0.013532588 -0.02055256
0.013965493 -0.022467848 0.012821825 0.007787924 0.038453132 0.040721428 0.013277241 0.017298955
0.0013734477 0.026824683 0.03879317 0.015135136 0.037289802 0.008162911 -0.05031581 0.010588004
0.033345297 0.032931693 -0.034200337 0.040963646 -0.027001528 0.018808672 0.0033638296 0.02443663
0.0159315 -0.006428429 0.020962406 -0.01919166 0.03835314 0.017501077 0.04106267 0.007169009
0.00602327 0.048668303 -0.0014242184 0.032558084 0.030803282 0.022004528 -0.027410239 -0.009488576
-0.023717023 0.006606037 -0.013836316 0.027020229 -0.034264855 0.032694962 -0.0486835 -0.021515185
0.0076243593 0.01946205 -0.029792016 0.031204093 0.02430049 -0.012532681 0.045845013 -0.02116369
0.04022012 0.03751757 -0.034773506 0.0017942702 -0.0090794675 0.024655143 -0.016126946 0.009666924
-0.028006889 0.04776527 0.007203887 0.0068634837 0.04288863 0.0093618035 -0.020329166 0.024413029
-0.033495214 0.016305849 -0.055671804 -0.059670802 0.028663691 0.008065359 -0.042407364 0.049913935
0.02389463 -0.007563429 -0.004922855 -0.055216294 0.012458953 -0.02678269 0.054525096 0.029395118
-0.0021559934 0.025797835 -0.014989377 -0.07416872 0.02104835 -0.0044614454 -0.009612714 -0.0808199
-0.069122635 0.059544485 -0.032325342 0.03356073 0.041320372 0.01505546 8.896327e-05 0.010962503

sequential_1/conv2d_4/Conv2D_bias f4 [32]
00000000: 9c21 f0ba 66f7 2b3c c41b c4bb 11e4 fcbb
00000010: 9c46 c4bb 0129 c4bb fa71 7dbb b60f aabb
00000020: 9503 92bb dbf9 2e3b fa29 cebb 40af d7bb
00000030: af89 17bb efae c1bb c3cc d6bb 293d c4bb
00000040: 2f9c c3bb ef19 01bc 8cf5 cbbb 764c cabb
00000050: 0f76 51ba 3dcf 83ba a54e 00bc 195a a1ba
00000060: ddc5 3a3b c941 c4bb 68d2 163b 7b52 b13b
00000070: eda1 cabb d934 8abb bd21 a9bb 8ea5 103b
-0.0018320563 0.010495996 -0.0059847552 -0.0077176173 -0.0059898626 -0.0059863334 -0.0038672672 -0.005189861
-0.0044559934 0.0026699218 -0.006291625 -0.0065821707 -0.0023122837 -0.0059107463 -0.006555171 -0.005988736
-0.0059695463 -0.007879718 -0.00622434 -0.0061736656 -0.00079903094 -0.0010056269 -0.00783125 -0.0012310176
0.0028499283 -0.0059892875 0.0023013595 0.0054114438 -0.006183854 -0.0042177257 -0.0051614926 0.0022071335

sequential_1/conv2d_5/Conv2D/ReadVariableOp f4 [64, 3, 3, 32]
00000000: ffe1 8e3c a562 7ebd b658 b5bc 0936 fbbc
00000010: ff1b 8ebd 36b1 2e3c 0fa3 c53b a61d a23d
00000020: f6a6 ff3c 3c4e 9fbd 56e3 14bd 1c10 59bd
00000030: 37d5 603d ccb0 a4bc 5bfd 793d e38d fe3c
00000040: d394 863d 7c56 60bc 6a71 89bd 58f4 7fbd
00000050: cab0 81bd ef4a 39bd 74ad fe39 66d4 eb3a
00000060: 30c3 2bbd 4eef a73d a544 8c3d 8022 0bbd
00000070: df97 7d3c 07ba 16bd 537d 7abd 23cf 88bd
00000080: 4de8 aabd 1314 1bbd b2a3 333d 06cc 7b3d
00000090: 84eb ed3c c71e 9ebd e9b8 c93c 440d 6d3c
000000a0: 8299 e5ba cce2 b43c 0f03 963d 194f e5bc
000000b0: 0194 b4bc 6821 3b3c 9a0c 363d cc2b 74bd
000000c0: 6850 e83c 52e1 52bd cd8b ccbc 49fe 8bbc
000000d0: a2b6 783b 7db8 8abd b118 b1bd bd7d e5bc
000000e0: e843 6e3c b6dc 1bbd a42f 963d 2a2a 37bd
000000f0: 94e1 833d 77eb babd fb4c b8bd d32e b33c
00000100: 7aea 94bd 7641 433d a771 723d 757d 9fbd
00000110: 516c 03bb bc98 483c eb95 a23c 354c 893d
00000120: fe86 0a3d 5f94 02bd 797a 8f3d a13a 2cbd
00000130: 9c37 06bd 056a 813d dbd7 89bd ecc7 8ebc
00000140: f8cd 13bd 4d01 183c 02e4 4a3d 559c bebd
00000150: b483 a83c 593c 6f3d 892b 793c bcbe 68bd
00000160: a360 573d bf40 7d3d 6b5e 993c 6798 c9bd
00000170: 0c78 b0ba ae9d b8bc a133 bcbd 032b ae3c
00000180: 5aa1 fb3c cabc 44bc 22a0 b33d ec8b 7b3d
00000190: e5cd ae3c 5d1a 1dbd 9933 aabd c7c9 523b
000001a0: 5c3a 6abc b055 88bd f71e 313d a5bb 903c
000001b0: bd15 02bd c0cc daba 99ca 45bd e6c9 50bc
000001c0: 806e f0bc 2847 a3bd 98d5 2e3d 1ebe e7bc
000001d0: 5a46 09bd b4ba a9bd a2d9 90bd 86f6 03bd
000001e0: 973f 653d e901 e9bc 5750 ef3c b3ca a13c
000001f0: 6d3b 873d a63e 943d aab4 7e3d 3089 26bd
00000200: 06e1 a53c d288 553d 6aae 8a3d 01fa 293d
00000210: 464f 913c 387b 843d 3ff1 fabb 83b0 d03c
00000220: 6325 64bd d829 7a3d 07b4 4bbd 0b45 82bd
00000230: 370a 603d 09b7 a13d a00d 60bd ba85 693d
00000240: c19d 86bd 38be 8ebd 9be0 85bd d859 fd3b
00000250: 6b82 733b 719e 8d3d 179e 0a3d fd3d 9a3d
00000260: db49 123d f5c0 113d 038d 5abd 2c29 e0bc
00000270: 3a16 893c ea6f 5bbd 7db2 1cbd 66fa 2ebc
00000280: e58f c1bc ac62 92bd 5eaa 1fbd 8391 b1bd
00000290: 56e0 aabd 50fc eebc 8882 b9bd 148b 6cbd
000002a0: 483b 01bd 5d1a 98bd 7907 adbd 0680 793d
000002b0: 96e2 4cbd 1636 01bd 77ba 79bd 910e 96bd
000002c0: 3ec8 2cbd 7248 e9bb d854 1a3d 220b e4bb
000002d0: b64f cd3c d55e 7138 127c 673b ea68 9e3d
000002e0: 8478 aabd dfc2 9d3c ada8 833d 1c60 82bd
000002f0: a25c 21bd 2f10 59bd 5794 19bd 5d92 6a3d
00000300: 7536 863c b594 04bd 6756 983d c786 3b3b
00000310: 10a3 b2bd 3bcd 8e3d cac7 aabb 6a66 313d
00000320: 6c20 6f3d ffc5 debc f42a 27bd a9f0 653d
00000330: 552b 653c 0b58 86bd 025a 613c 6149 983c
00000340: 4673 323c 0e93 59bd 8d48 873d 9550 95bd
00000350: fbeb 7d3c e1f5 1c3d 4a9b 5a3d 1d71 ee3b
00000360: 8639 d63c 248e 013d 379d fbbb 9e3c 8d3d
00000370: 74af a53d 7859 9a3d 1f21 9d3c 1b7e 893d
00000380: 3c2e d83c 5130 803d 364d 90bc 02cb 4cbd
00000390: b050 6cbc 481b f7bc fa13 4f3d af36 3a3d
000003a0: d772 17bd 74e4 473c 64e8 3b3d 2380 9ebd
000003b0: 5bbd e03c 5067 d63b 171f f5ba 2ae5 0fbd
000003c0: 8da2 b73c f79a 903c e8f5 7bbd 204f ecbc
000003d0: d36d bf3c b9c6 98bc db70 89bd 05ec 86bd
000003e0: c9de 55bd d725 85bb b8b2 1d3d 5619 0b3d
000003f0: cfa7 b33c 4412 85bd 843b 19bd f6b2 9abd
0.017441748 -0.062105794 -0.022137027 -0.030665414 -0.069389336 0.010662368 0.006031401 0.07915811
0.031207543 -0.07778594 -0.036349617 -0.05299388 0.054890838 -0.020103835 0.061032634 0.031073516
0.06571355 -0.0136924945 -0.06711085 -0.062488884 -0.06332548 -0.045237478 0.00048575888 0.0017992377
-0.041934192 0.081999406 0.068490304 -0.03396845 0.015478103 -0.036798503 -0.061154675 -0.06680133
-0.08345089 -0.03786094 0.043857284 0.06147387 0.029042967 -0.07720714 0.024624305 0.014468495
-0.0017517062 0.022080801 0.07324802 -0.027991818 -0.02204323 0.011421539 0.04444561 -0.05961208
0.028358653 -0.051484413 -0.024969006 -0.017089026 0.0037950655 -0.067734696 -0.08647288 -0.028014058
0.014542557 -0.038052283 0.073333055 -0.044717945 0.0643951 -0.091269426 -0.08999058 0.021872913
-0.07271285 0.04766985 0.05919042 -0.07787601 -0.0020053575 0.012243446 0.019846877 0.067039885
0.033820145 -0.03187978 0.07005782 -0.0420481 -0.032767877 0.0631905 -0.06730624 -0.017429315
-0.0360851 0.009277654 0.04953385 -0.09307162 0.020570613 0.05840716 0.0152081335 -0.056822523
0.052582394 0.061829325 0.01872178 -0.098435216 -0.0013463511 -0.022536125 -0.09189535 0.021260744
0.030716587 -0.012007901 0.08770777 0.061412737 0.021338413 -0.03835522 -0.08310623 0.0032163726
-0.0142961405 -0.066569686 0.04324242 0.0176676 -0.031759012 -0.00166931 -0.048288915 -0.012743449
-0.029349566 -0.07972556 0.042684168 -0.028288897 -0.033514358 -0.08287564 -0.0707276 -0.032217525
0.055968847 -0.028443294 0.029213114 0.019749975 0.066031314 0.07238512 0.062184013 -0.040658176
0.020248901 0.052132435 0.06771548 0.041498188 0.017737996 0.064688146 -0.0076581533 0.025474792
-0.055699717 0.06107506 -0.049732234 -0.06360825 0.05469724 0.07896239 -0.054700494 0.057012297
-0.06573058 -0.06969875 -0.06536981 0.0077316575 0.0037156593 0.06914986 0.033842172 0.075313546
0.035714965 0.03558441 -0.053357136 -0.027363382 0.016734231 -0.053573526 -0.038256157 -0.010679817
-0.023628185 -0.071477264 -0.038980834 -0.08670332 -0.0834357 -0.029173046 -0.090581 -0.057749823
-0.031550676 -0.074269034 -0.08448691 0.06091311 -0.050020777 -0.03154572 -0.060968842 -0.07326997
-0.042183153 -0.007119232 0.03767857 -0.006959335 0.025062423 5.7547197e-05 0.0035321754 0.077348545
-0.08323768 0.01925796 0.06428657 -0.06365988 -0.039394982 -0.05299395 -0.037494984 0.05726849
0.016383389 -0.03236838 0.07438355 0.002861427 -0.08722508 0.06972738 -0.005211805 0.04331056
0.05838053 -0.027194021 -0.040812448 0.056137715 0.013987382 -0.065597616 0.01375437 0.018589677
0.010891741 -0.053118758 0.06605635 -0.072907604 0.015498157 0.038320426 0.05337075 0.0072766677
0.026150476 0.031629696 -0.0076786536 0.068963274 0.08090106 0.07536596 0.019180832 0.06713506
0.026389234 0.062592156 -0.017614942 -0.04999829 -0.014423534 -0.030164376 0.05055616 0.045462307
-0.036974754 0.012200464 0.04587592 -0.07739284 0.027434042 0.0065430775 -0.0018701282 -0.035130657
0.022416377 0.017652018 -0.06151381 -0.028846323 0.023367798 -0.018649446 -0.067109786 -0.06587986
-0.052214418 -0.0040633488 0.038500518 0.03395971 0.021930603 -0.064976245 -0.037410274 -0.07553665

sequential_1/conv2d_5/Conv2D_bias f4 [64]
00000000: 4818 f6b8 1173 36bb cb7f 823b 365d 8f3b
00000010: 631e d1ba 97d9 3ebc 0000 0000 2e13 773b
00000020: fad4 4dbb 51db 3fbc d2eb 943b 1160 a6bb
00000030: 797b 2e3c bd36 82bb 4bf4 84bb a33b c4bb
00000040: 2956 04bc 84af 59ba 37f2 60bb b084 66bb
00000050: 0000 0000 2cfb dc3b 545f 3cba ce22 08bc
00000060: 764d c8bb 5360 b3ba 3dc4 2b39 7273 a4bb
00000070: 924b e4bb df2e b83b 1113 673b d5b9 bc3b
00000080: 100c 33bb 8327 e2b8 94d8 19bc 0fe5 d6bb
00000090: 7da8 893b 7545 c4bb 290b 08bc fece a43a
000000a0: 1245 033b b537 bc3a be99 e2bb 1e6a 29bb
000000b0: 0c10 5f3b 6d03 13bb 82c4 6f3a c41c ccba
000000c0: f003 96b9 4bcf c3bb 2632 9b3a 4af1 8d3a
000000d0: 79c0 b03a 2f86 f23b 7618 423b 5aa9 81bb
000000e0: 7244 c4bb 616b ecbb 098e 12bc 418f a23b
000000f0: ae12 3db8 daf3 cfba 5121 993b 9d45 c4bb
-0.00011734717 -0.002783958 0.0039825193 0.0043751253 -0.001595449 -0.011648557 0.0 0.003770064
-0.0031407462 -0.011710004 0.0045447135 -0.00507737 0.010649555 -0.0039738105 -0.0040574423 -0.0059885546
-0.008077183 -0.0008304047 -0.0034324059 -0.0035174303 0.0 0.006743809 -0.0007185836 -0.008309079
-0.0061127497 -0.0013685323 0.00016380935 -0.005018645 -0.0069670165 0.005620822 0.0035259167 0.0057594576
-0.0027320422 -0.000107838794 -0.009390015 -0.0065580676 0.0042009936 -0.0059897252 -0.008303442 0.0012573896
0.0020030183 0.0014359864 -0.0069153 -0.0025850604 0.0034036664 -0.0022432462 0.00091464084 -0.0015572538
-0.00028613163 -0.005975639 0.0011840507 0.0010829356 0.0013485096 0.00740125 0.002961663 -0.003956956
-0.0059896046 -0.007214949 -0.008944997 0.004960925 -4.507851e-05 -0.001586552 0.004673161 -0.005989744

sequential_1/dense_2/MatMul/ReadVariableOp/transpose f4 [64, 128]
00000000: c07b 823b 8c3c 38bd 8f1c a1bd 1c9b 74bc
00000010: 39ad fabd 0008 20b9 ad92 14be 2823 c63c
00000020: 95b7 603d ac2f 1cbe 48f0 c2bb e5ab 0dbe
00000030: 32be 70bd 4e75 763d 435a 1dbe 7425 07be
00000040: 0607 71bd 1a6f a9bd f4a5 4d3d 9fa1 003e
00000050: 908e 12bd 9410 1b3d 247e c73c 00e2 a33a
00000060: 2f35 723d a4a5 bd3d e214 5a3c 4028 0d3d
00000070: 1c7f 18be 2cbd 313d 4b61 d0bd 9aaa 0fbe
00000080: aeff f63d 1b8f 1bbe 0803 133d b2bf ea3c
00000090: 22ef f8bc b9c3 63bd 46c5 17be 7fe0 7d3d
000000a0: 0c98 8f3d 1002 0a3c 2963 ab3b 1dd0 f23d
000000b0: 4025 713c 10cf 1f3c caf2 2a3e b7a1 a43d
000000c0: 644a df3d 0cb0 343d d292 dd3d 99bf 0fbe
000000d0: 8753 91bd ae2c f9bd 304c 31be 5913 2b3e
000000e0: 84e4 1abe b5fa 8bbc b88c 32be 5379 95bd
000000f0: 007f 32be 145a df3c 2087 873d aae1 2a3e
00000100: 81e2 163e d7c4 33be b7eb 043e dae5 973d
00000110: e1a9 f33d 0063 1ebd d4fa 46bd 4c67 913d
00000120: efa0 d33d f310 c3bd 344f bd3d 7808 8f3c
00000130: 517c e63d 60c2 303d d3db ccbd 27a2 153e
00000140: 2c13 02be 1235 e9bd 60dc 573c b691 4fbd
00000150: f0e6 a2bc 200e d13b 68db 9e3d c153 143e
00000160: 0410 563c 160e 1bbe f78e 263e 2c1d 9abd
00000170: 4a25 ed3d e38b 303e 2a1c 2bbe 42b1 df3d
00000180: a1bd 08be 44ae afbd d5ea 82bd 883f ffbd
00000190: 71b1 b5bc bcb2 323c 6abf 9ebd ec55 0c3e
000001a0: a630 ac3c 90d3 573c 6158 3abe 8dfd cabc
000001b0: fada 88bd e701 2c3e e950 a83d 4f98 ab3d
000001c0: a535 0abe 40d0 aa3b 91f5 993d 9c7a efbd
000001d0: 5b71 12be 5305 27be 960c 9dbc 3a6a 35be
000001e0: 6c3a 81bd b220 ee3d 784f d5bd 16a7 ccbd
000001f0: 9815 fabd 1149 fbbd c6ca 24be 78a0 b53d
00000200: a44d 1abe 881b bebd b95b 863d f8a8 cbbd
00000210: db97 e1bd a9c0 bcbd d37f 303e 35e5 11be
00000220: b9a7 84bd dbb5 333e c433 adbd c479 28be
00000230: cccb c1bd 594d 043e d60a 0c3e 60cc e83b
00000240: d772 28be ee82 b83d b523 123e 5b17 c4bd
00000250: 2220 bd3d ee05 033e 2294 6a3c bfa7 e6bd
00000260: cc5f 0fbd ec5b 0c3d 765b f33d 3efb 9cbd
00000270: f821 bebc 0ef7 de3d 7b2b 8bbd 38c3 dd3c
00000280: cf09 e03d 8a59 f0bc acfc 15be 08be 94bd
00000290: 8eb2 a0bc e61d 2cbe 73c9 d3bd 1795 073e
000002a0: 9cb9 0fbe 8101 2fbe 0de5 8ebd 94a2 2fbe
000002b0: 163e 513d d496 0abb 06ff a4bd 4620 3f3c
000002c0: 1a74 12be 3eff 22be 3eb5 423e d8e8 993d
000002d0: c83a 2a3e 6960 99bd 77b1 08be 7140 ce3c
000002e0: 3848 403d 40a9 463b d883 eb3d 4198 233e
000002f0: ba98 2a3b dd1a 0cbe 0b7c 2c3e 3008 2ebd
00000300: 0b41 64bd 8bb7 06be 1a86 ee3c eceb 19bd
00000310: 8e6e d63d be9b 9dbd 3885 a13c 46a2 993d
00000320: 2fee bebc 24ff 813d 3372 84bc 60a8 9b3c
00000330: 0a8d 25bd f1d8 e23b 3bcd a23d d45c 16be
00000340: 406e d2bb 9ddc adbd 8039 7bbc 94b2 a7bd
00000350: d1ea aebd a248 d7bc 00b5 973d 909a 893c
00000360: ee79 f9bd cb97 6c3d f49f 883d 0044 39bd
00000370: d573 1abe e5bc d3bd 8835 31bd d8a4 39be
00000380: 28e3 183e 55ec ea3d a092 45bc 9e3d ee3d
00000390: 8762 debd 6d24 31be 5786 0d3e 1766 a8bd
000003a0: 75d4 a73c 902b c4bd d877 86bd 21ab f2bd
000003b0: 443b cebd 4555 a3bd fb5e 073e ebb7 943c
000003c0: 26cd c2bd c402 683d 1d0b 423e 4e4c bebd
000003d0: 612a fbbd edfa 123e 75b1 1fbe d8e4 7e3d
000003e0: 7c18 40bd a4b2 2b3d 7abe 90bd 7815 3abd
000003f0: 2b71 83bd a085 e93b cfd3 363e 0084 e13c
0.0039820373 -0.044979617 -0.07866775 -0.014929559 -0.12240071 -0.0001526177 -0.14509077 0.024186686
0.054862577 -0.1525256 -0.005949054 -0.13835104 -0.058775134 0.060170464 -0.15366463 -0.13197881
-0.05884459 -0.08273144 0.050207093 0.12561654 -0.03578049 0.037857607 0.02435214 0.0012503266
0.05913275 0.09260109 0.013310643 0.034462214 -0.14892238 0.0433933 -0.10174807 -0.14029923
0.12060486 -0.15191309 0.035891563 0.02865586 -0.030387465 -0.055606578 -0.14821348 0.061981674
0.070114225 0.008423343 0.0052303267 0.11856101 0.014718354 0.009753957 0.16694179 0.08038657
0.10902861 0.044113204 0.108190194 -0.14037932 -0.0709601 -0.12166725 -0.1731422 0.167066
-0.15126234 -0.01708732 -0.17436492 -0.072985314 -0.17431259 0.027264632 0.0661757 0.16687647
0.14734842 -0.17555557 0.12980543 0.074168876 0.11897636 -0.038668633 -0.048579052 0.070997804
0.1033343 -0.09524717 0.092436224 0.017460093 0.1125418 0.04315412 -0.10002866 0.14612637
-0.12702626 -0.113870755 0.0131751 -0.05067607 -0.01988551 0.0063798577 0.07756692 0.14485075
0.013065342 -0.15142092 0.16265474 -0.07525095 0.11579378 0.17240863 -0.16709962 0.10922481
-0.13353588 -0.085781604 -0.06392447 -0.124632895 -0.022179337 0.010906871 -0.07751353 0.13704652
0.021019291 0.013172999 -0.18197776 -0.024779106 -0.066823915 0.167976 0.082185574 0.0837866
-0.13497026 0.0052128136 0.07517541 -0.11693308 -0.14301054 -0.16310625 -0.01917104 -0.17716303
-0.06309971 0.1162733 -0.10415548 -0.099928066 -0.1221115 -0.12269796 -0.16092977 0.088684976
-0.1506868 -0.09282595 0.065604635 -0.099443376 -0.11015292 -0.092164345 0.17236261 -0.14247592
-0.06477303 0.17549841 -0.08457139 -0.164527 -0.09462699 0.12920131 0.13676009 0.0071044415
-0.16450058 0.09009348 0.14271434 -0.09574767 0.092346445 0.12795231 0.014317544 -0.11262464
-0.03500347 0.03426735 0.11882679 -0.07665108 -0.023209557 0.10886966 -0.067954026 0.027070627
0.10939371 -0.02933957 -0.14647168 -0.07262808 -0.019616392 -0.1680828 -0.10341158 0.13240467
-0.14035648 -0.17090417 -0.06977282 -0.17151862 0.0510846 -0.002114703 -0.08056454 0.011665409
-0.14302102 -0.1591768 0.19014451 0.075151145 0.16623986 -0.07489092 -0.13348947 0.025177212
0.046943873 0.0030313283 0.114997566 0.15976049 0.0026030974 -0.13682123 0.16844194 -0.042488277
-0.055726092 -0.13155954 0.029116679 -0.03757851 0.104703054 -0.07695721 0.019716844 0.07501654
-0.023306934 0.06347492 -0.016167736 0.019001186 -0.04041771 0.006922834 0.07949301 -0.14683849
-0.006421834 -0.08489344 -0.015333533 -0.08188358 -0.085408814 -0.026279751 0.0740757 0.016797334
-0.12181459 0.05776195 0.06671134 -0.045230865 -0.15083249 -0.10338763 -0.043263942 -0.18129289
0.14930403 0.11470858 -0.012058884 0.11632846 -0.10858636 -0.17299052 0.13820778 -0.08222597
0.02048705 -0.095786214 -0.06565827 -0.118490465 -0.10069898 -0.07975248 0.13219826 0.018154105
-0.09511785 0.056643263 0.18949552 -0.09291898 -0.122639425 0.14353533 -0.15595038 0.06222996
-0.04689835 0.04191841 -0.070675805 -0.04543063 -0.064180695 0.007126525 0.17854236 0.027528763

sequential_1/dense_2/MatMul_bias f4 [64]
00000000: 63ab 1dbb 604e 293c c9b7 02bc 6375 a4bb
00000010: dd79 eabb 301e 6f3b 3270 05bb 98b4 d83b
00000020: bfee 80bb e05e 003c 0000 0000 bd81 483b
00000030: 7795 b4bb 0000 0000 f50b 223a ab26 a13b
00000040: 556f 303c 94fa 72bb 818c 563b fb58 333b
00000050: 587b 47bc b04c 963a 09a2 f8bb 0000 0000
00000060: b820 b3bb 0000 0000 7df7 9b3b a10a 9bbb
00000070: 0000 0000 d539 0dbb 9e0e abbb e801 82bb
00000080: 4c45 46bc 0000 0000 7113 20bb 8c19 e3bb
00000090: 0000 0000 8871 ebbb 5508 c4bb 15d3 ecbb
000000a0: b638 c7bb 5d0b 503b 7126 3dba 7bd4 c0bb
000000b0: 0000 0000 f643 5ebc 553d 55bc 3c69 623b
000000c0: 5d80 ac3b 0000 0000 6a4f 193b 67f5 b53b
000000d0: f2f1 88bc e289 72bc 6f28 a2bb 7746 c4bb
000000e0: 0000 0000 90b5 c7b9 28ed 03bc 1e4c c93b
000000f0: f10a ab3b f341 ce3a fef8 d1bb d6b0 83ba
-0.0024058453 0.010333627 -0.007978388 -0.0050188764 -0.0071556405 0.00364865 -0.0020361063 0.0066133253
-0.0039347108 0.00783512 0.0 0.0030594908 -0.0055109817 0.0 0.00061815913 0.0049179397
0.010768731 -0.0037075626 0.0032737555 0.002736627 -0.012175404 0.0011466946 -0.0075876755 0.0
-0.005466547 0.0 0.0047597275 -0.0047314917 0.0 -0.0021549363 -0.0052202484 -0.0039675124
-0.012101483 0.0 -0.002442565 -0.0069305357 0.0 -0.007185165 -0.0059824386 -0.0072273114
-0.0060797585 0.0031745054 -0.0007215506 -0.0058847046 0.0 -0.013566008 -0.013015111 0.0034547588
0.0052643255 0.0 0.0023393282 0.005552936 -0.016716931 -0.014803382 -0.0049486677 -0.0059898454
0.0 -0.00038091512 -0.008052148 0.006143107 0.00521981 0.0015736207 -0.006407856 -0.0010047208

sequential_1/dense_3/MatMul/ReadVariableOp/transpose f4 [1, 64]
00000000: c4c7 0abe 69cc 08be 2018 413e 7462 843e
00000010: 3355 913e 5e3a 4dbd a3dc 943d 6169 9dbd
00000020: b0b4 8c3c 8552 81be 3846 803e 0970 90be
00000030: 3f01 e0bc b49b 6c3e e095 11bd 5f71 d2bd
00000040: ef76 1ebd f9b6 073d c1cb 4dbe c15b 84bd
00000050: b0ea 283e a393 523e 99dd a03c 50a3 73be
00000060: 5a4e 64be 1093 5d3d f15d 84be c467 913b
00000070: 0af3 8c3e 3f6f 57be 78be b93d 829b 91bd
00000080: 1dbf 883d 6ced 863d 0667 833e 8318 873e
00000090: e3ac 76be 24af 183e 2cb5 2d3e d2e2 983e
000000a0: c126 1bbe d136 ea3c 185d fcbd 8588 febc
000000b0: 402d b63d 70cc 223d 5b30 0abe 3b25 3ebe
000000c0: 40cb 67be 528e 1b3e 7c23 bebd d7d0 38be
000000d0: 7c76 663e c335 e93d 573d 513d 6344 753e
000000e0: b9cd 81be 23de 15be 747d 843e ca05 24be
000000f0: d0f2 64be b82b 453e cb2f 483e 36fd 743e
-0.13552767 -0.13359226 0.18856859 0.25856364 0.28385314 -0.05010449 0.072686456 -0.07686115
0.017176002 -0.2525827 0.25053573 -0.28210476 -0.027344344 0.23106271 -0.035543323 -0.1027553
-0.038687643 0.03313348 -0.20097257 -0.06462813 0.16495776 0.20564131 0.019636916 -0.23792768
-0.22295514 0.054095328 -0.25852922 0.0044374187 0.27529174 -0.21038531 0.09069532 -0.07109739
0.06677077 0.065882534 0.25664538 0.26385888 -0.24089389 0.14910561 0.16963643 0.2986055
-0.15151502 0.028590592 -0.12322444 -0.031070957 0.088953495 0.039745748 -0.13495009 -0.1856889
-0.22636127 0.1519101 -0.09284112 -0.18048416 0.22506136 0.11387207 0.05108389 0.23951869
-0.25352266 -0.1463552 0.25876963 -0.16017833 -0.2235825 0.19254959 0.19549482 0.23924717
