app/src/main/assets/model.tflite (tflite, 373172 bytes, 9 tensors)

sequential_1/conv2d_3/Conv2D/ReadVariableOp f4 [32, 11, 11, 4]
00000000: 3c79 cebc b368 9abc 04fe cfbc c092 c33c
00000010: 0813 b13c 5c89 22bc 9295 54bd 4cb0 063d
00000020: eb31 aabc ac2d 2d3a f475 d7bb 5b65 b43c
00000030: f437 cdbc f559 d53b fa92 32bd 1bfe cfbc
00000040: 9773 253c 7d2d 31bc fcbc f13a 1c25 363d
00000050: b7e9 193d d4ff 913c 2917 87bc ebff 163d
00000060: 9807 a6bc c294 4b3c dbb4 8f3c 38fb a1bb
00000070: 0cde a53c 811a 873c 4ec6 ffba bba6 d63b
00000080: 4777 893c 0345 32bb 2007 67bc c7ba e5bc
00000090: ac98 073c db38 973c 10a2 29bd be84 56bc
000000a0: fd1e 92bc a2ba efbc 0cf9 053c c981 d53a
000000b0: 5ab4 b93b 8946 b93c 7c64 31bc e483 0f3d
000000c0: da0b 9dbc 9cec a03b aecd da3b d488 07bc
000000d0: 3c1b abbc 1f09 8a3c b89a 44bd 4bf7 043c
000000e0: 431f 70b7 404d 023b 1df1 26bd 353f 133d
000000f0: b4c5 80bc 8631 053c 9ed1 7bbc 9b0b 37bc
00000100: 68db 0f3c 57fa 3c3b c637 20bd 4657 1d3d
00000110: 7835 0e3d ea17 0e3b addf a8bb fb45 133d
00000120: 7813 d23c 60e0 ae3c 39bd 28bd 2f2c 0a3d
00000130: 2bae dfbc 4ed0 b8bb 0e32 50bd db08 31bc
00000140: 8a97 1f3d c340 e0bc 41c2 44bd 4938 6f3c
00000150: 83ef 313b 7824 c93c 3616 603b 3d9a ccbc
00000160: 9cba d93c 394e 38bd 4f11 7b3c c18b 96bb
00000170: 860f 3cbc 66b1 c53c 443f 94bc c9f7 65bc
00000180: e567 51bc 9b9d 1abc 60b8 64bc 8b7a 55bc
00000190: fd03 bdbc 6d9c 7b3c 7076 63bd d166 253d
000001a0: 108d 01bc 7b8b f4bc 6f2b 14bd d95d ac3c
000001b0: b4f3 f9bc b79f 2ebd 21d7 bdbc 2e5a 343d
000001c0: 47d3 b33c 4dd9 983b ee6d d8bc a38b 17bb
000001d0: 8c92 c93c cfa0 e8bb 0e7d 87bc 8fd2 57bb
000001e0: e4b5 fbbb 7e96 3d3c 8c9a 86bc 24d7 48bc
000001f0: 553e e03c 8760 d4bc 5f8a 1bbd d476 f6bb
00000200: eb86 b9bb ee98 08bd e3e8 da3b 2e28 383c
00000210: c44b 2bbc 2603 ab3c fa06 21bd 5717 efbc
00000220: 190f 10bd fbd3 b63c 0d82 503c 0589 09bc
00000230: 4564 c63c c618 a93c bda1 9ebb a450 dc3c
00000240: c766 4b3c b700 ed3b 6615 273b 03d0 a9bc
00000250: 66a4 f9bb df35 973c 9966 2ebd e555 3e3d
00000260: 3822 8d3c c38e f2bc 64c1 e4bc b22e dc3c
00000270: ae65 bfbc 7558 7d3c 1e63 9dbc 42b3 293d
00000280: 6eeb 2a3c ba3d 0cbd 75ee 0a3b 9e6b 58bc
00000290: 81df cf3c 5f31 3dbc 6264 18bc fa1c ec3c
000002a0: 356d 35bc 2542 dbbb 5b7f 8c3c a844 9c3c
000002b0: 516a e5bc bbb3 ffbc 709f a03c 7a45 9fbc
000002c0: 4179 82bc df01 a23c 22ab b63a 67db 593b
000002d0: 0518 ed3c d4ec 2a3c 9669 1fbd 9318 bdbb
000002e0: 7a12 8f3c 4e22 eb3c 5ec6 5fbd 6a5e 223d
000002f0: a20e 043d cd2f b6bc cbf6 963b f5ed cbbb
00000300: e4f8 ab3b a90a b83c 577d 3fbd 18ae cebb
00000310: c16f dbbc bce8 21bd f383 61bd 7b09 e03b
00000320: 9b4b 833b 1590 69bc 34d6 cbbb e3ca 343b
00000330: 5bf1 0a3c 947b c7bc f12a f0ba 759f 173d
00000340: 60be 2e35 25f4 063d 879e ab3c 6c2f 193d
00000350: c8e3 1f3d 7328 0fbd bef3 813c 9e71 0a3d
00000360: 6abe 823c ec1d df3c eaf8 3abd 389b cfbc
00000370: ae18 07bd 2dbd 02bd c09f 053c 9fb2 1d3d
00000380: 4ded 57bb fc04 f939 98e8 3bbd 8392 5dbc
00000390: 3906 0a3b ca41 563b e4a7 433c 087a 81bb
000003a0: 3de2 93bc 2065 ae3c 491b 02bd c00a adbc
000003b0: a8bc 9d3a a1d0 d9bc 1308 d4bc c0bb 2b3d
000003c0: 8b03 8cbc a65c b33b 9b36 1cbc e582 26bc
000003d0: efff e13c 3041 953c 2e34 e5bc 2167 103d
000003e0: 8907 523c 998a 203b 8e13 c33b ce8f 86bb
000003f0: 388f 8dbc 671a 123d 5d0f 813c 5d66 9bbc
-0.025204293 -0.018848753 -0.025389679 0.023873687 0.02161552 -0.009920444 -0.051900454 0.032882974
-0.020775756 0.0006606232 -0.0065753404 0.022020986 -0.025051095 0.006510968 -0.0435972 -0.025389722
0.01009836 -0.010814068 0.0018443163 0.044468984 0.037576403 0.017822184 -0.016490536 0.036865156
-0.020267293 0.012425603 0.017542293 -0.0049432777 0.020247482 0.01649213 -0.0019514055 0.0065506375
0.016780509 -0.0027201779 -0.01410082 -0.028043164 0.008276146 0.018459728 -0.04141432 -0.013093172
-0.017837042 -0.029263798 0.008177053 0.0016289289 0.0056672515 0.022616642 -0.01082718 0.03503789
-0.01917069 0.0049110185 0.006677351 -0.008272368 -0.02088701 0.016850052 -0.047999114 0.0081156
-1.4312393e-05 0.001988247 -0.040757287 0.03594895 -0.015719272 0.008129483 -0.015369801 -0.011172201
0.008780338 0.0028835738 -0.03911569 0.03841331 0.03471896 0.0021681734 -0.0051536174 0.03595541
0.025644049 0.021347225 -0.04119608 0.033733543 -0.02730473 -0.005640066 -0.050828986 -0.010805334
0.03896288 -0.02737463 -0.048036817 0.014600822 0.0027150817 0.024553522 0.0034192926 -0.02497589
0.02657824 -0.044996474 0.015323951 -0.0045942967 -0.01147831 0.024132442 -0.018096574 -0.014036127
-0.012781118 -0.00943699 -0.013959974 -0.013029705 -0.02307319 0.015357119 -0.055532873 0.040381256
-0.007907167 -0.029851666 -0.036174234 0.021040844 -0.030511715 -0.042632785 -0.02317387 0.044031315
0.02195133 0.004664576 -0.026419606 -0.0023124001 0.024606012 -0.007099248 -0.016539123 -0.00329319
-0.007681595 0.011571525 -0.016431116 -0.012258325 0.027373472 -0.025924934 -0.037973758 -0.0075214896
-0.0056618354 -0.03334897 0.0066805943 0.011240048 -0.010455076 0.020875525 -0.039313294 -0.029185934
-0.03517065 0.022317877 0.012726319 -0.008394484 0.024217734 0.020641696 -0.004841058 0.026893921
0.012414641 0.007232751 0.0025494932 -0.02072907 -0.007618475 0.018458305 -0.042578313 0.046468634
0.01722823 -0.02960909 -0.027924247 0.026877735 -0.023363914 0.015462984 -0.019212302 0.04143072
0.010432107 -0.034238555 0.002119926 -0.013209252 0.02537513 -0.0115474155 -0.009301277 0.02882241
-0.0110734 -0.0066912347 0.017150572 0.019075707 -0.028004797 -0.031213632 0.019607276 -0.019442309
-0.015926959 0.019776283 0.00139365 0.0033242346 0.028942117 0.010432441 -0.038919054 -0.0057707517
0.017464865 0.028702881 -0.054632537 0.03964082 0.032240517 -0.02223959 0.0046070567 -0.006223435
0.005248176 0.02246602 -0.046750393 -0.0063073747 -0.026786687 -0.039528593 -0.055057477 0.0068370677
0.0040068156 -0.014255543 -0.0062206034 0.002758675 0.008480395 -0.024350919 -0.0018323344 0.037017304
6.5097083e-07 0.032947678 0.020949615 0.03739874 0.03903559 -0.034950685 0.015863296 0.03379976
0.015959937 0.027235948 -0.04564754 -0.025342569 -0.03298252 -0.031918693 0.008155763 0.038500424
-0.0032947839 0.00047496695 -0.045876116 -0.013523701 0.0021060838 0.0032693022 0.011941884 -0.003951315
-0.018052215 0.021288455 -0.031764302 -0.02112329 0.0012034373 -0.02658874 -0.025882756 0.0419271
-0.017091533 0.005473691 -0.009534503 -0.010163044 0.027587859 0.01821956 -0.027978983 0.0352546
0.012819179 0.0024496673 0.005953259 -0.0041064983 -0.017280206 0.03566971 0.015754396 -0.018969709

sequential_1/conv2d_3/Conv2D_bias f4 [32]
00000000: 44ba 6e3b 70de e3bb 8abe 08bc cb57 07bc
00000010: 522d 70bc 5438 df3a ab3c 9fbc 1c82 e23a
00000020: caa3 9c3b d5bc 1dbc 5a37 f3bb a332 e3bb
00000030: 03b1 373c 50f3 b33a c073 163b dcb3 2a3c
00000040: 2fcc f13b 1246 18bc ad5f 043c 4eff 5ebb
00000050: f652 25bc 6c58 08bc 6c0d 81bb f677 a4bc
00000060: a9c1 9fbb 0c00 f6ba 1ab2 f5ba 5070 e93b
00000070: eaf5 ac3b 4a1a f9bb dd27 7fbb ff91 71bc
0.003642694 -0.006954007 -0.008346209 -0.008260678 -0.014659243 0.0017030337 -0.019438108 0.0017281207
0.0047802674 -0.009627541 -0.00742237 -0.0069335266 0.0112116365 0.0013729129 0.0022957176 0.010418858
0.007379077 -0.00929405 0.0080794515 -0.0034026685 -0.01009058 -0.008321863 -0.0039383676 -0.020076733
-0.004875381 -0.0018768325 -0.0018745095 0.0071239844 0.0052783387 -0.007602011 -0.0038933672 -0.014744281

sequential_1/conv2d_4/Conv2D/ReadVariableOp f4 [32, 7, 7, 32]
00000000: c97b 1a3c 843f 98bc 096d 1d3d 8a5e 9cbc
00000010: bdda 38bd c4e6 c1bc b157 3fb8 71b5 c53c
00000020: 7f08 f93c 88ef 113c ea1a e13c 921e 40bd
00000030: 62fd bbbb 4202 acbc f019 2c3b 3323 1ebc
00000040: 6542 803c c42e 02bd 9a3b b5bb 6460 a0bc
00000050: 638c fc3c 603c 75bc a27c f3bc 061f 383b
00000060: 6a9d 2fbd f45f 21bc 9b2a e93c ca9d c23c
00000070: 5d11 cc3c 0c3b 28bd 4211 1cbd 0340 6cbc
00000080: c2cd 0ebd 4089 563b 52ae d73c 8c52 983b
00000090: b707 113d 0d7e 10bd 7885 f23b 28ab f4bc
000000a0: 0bda fa3c 70a8 53bb 92e3 2abd 9997 943a
000000b0: e2c5 263c 942b 903c 0a5c ca3c df68 82bc
000000c0: 45df 21bd ac2c 27bc 89b7 163b 6c18 193d
000000d0: 6bb7 18bd 6603 65bc 6106 59bc 2096 1b3d
000000e0: e55e 38bd e252 ed3c 7f1e 12bc c642 bc3c
000000f0: 452f 81bc e621 92bc 8c6f 103d e303 1fbd
00000100: 30d2 b03c c223 d83c f850 283c 3b0a 36bd
00000110: 034f 39bd 82d5 c53b 4b4f b4bb 863f a5bc
00000120: 34c5 d7ba 463c 77bc 036d 06bd c64f 1ebd
00000130: e5ce 28bd e5a6 1a3d a3c6 23bd e05e 0dbd
00000140: 4df2 2bbd 1ea7 8fbc a32f 933c 2dbc c9bc
00000150: a4c4 bcbc e45b 8cbc 9537 1e3b a768 10ba
00000160: 9183 1ebd 4548 1e3d f048 3dbd 4748 0f3d
00000170: aabf eebc 2a95 9a3c 495f 33bd e065 b83c
00000180: dad2 8abc 8dc2 9dbc 9ba8 afbc 4557 973c
00000190: bc8d 25bd e8d2 15bd c9ba 6dba 8896 25bd
000001a0: 60f5 d43c eefd c63c 4a6d ec3c 2c91 24bd
000001b0: 2522 77bc 93c0 0cbd 331a 2a3d c45c 023d
000001c0: 2431 efba dfdb f6bc aa65 2cbc 6fe4 0cbd
000001d0: 8828 073d 879a 2bbd 1164 033d c8ba f9bb
000001e0: e3b8 913c 5381 98bc 52fa 85bc 367e eb3c
000001f0: 3c8f 093d daf5 d83c 7853 5bbc 67dc 1ebd
00000200: e89e a93c af81 1a3d 8bcd 273d c4a4 cf3c
00000210: 6c78 eebc a99f 79bc d60a fb3c 947a f33c
00000220: 372c 4ebc aed9 e83c b801 bebb daf9 0bbd
00000230: a7f6 913b 19b3 1fbd fa61 b0bc 713d 46bd
00000240: 0db0 543c 7563 18bd ef30 44bd b5f5 a43b
00000250: bb69 eb3b 5e2a f03c 131a d83c 5423 3abd
00000260: fd3b 10bd f018 61bb 4c39 093d de93 24bd
00000270: 5c3d 07bd dc08 fd3c 3abf e3bc ee05 123c
00000280: 2123 20bd 78f6 0bbd 8110 fb3c 451e 2d39
00000290: e24d 873a d53e fcbc bac4 ff3a a7ab 21bd
000002a0: 14a2 35bd 50d9 833c ecd3 2abc 30fd 803b
000002b0: 4e8b 23bd 836d 1e3d 40ee f8bc 3c22 e83c
000002c0: 9c10 fe3c 1d38 dcbc fc28 12bd 0ce5 063d
000002d0: aa65 ec3b b662 a03c 0077 37bd cac3 7a3c
000002e0: fc94 a43c 77ba 093d 9074 12bb 888f d6bc
000002f0: 1bce 363c 15b4 d43b f67f 82bc c085 e53c
00000300: ba0b e4bb 82df f5bc 718c 32bd 50f0 333b
00000310: 648c 0b3c b604 11bd 8910 95bc 2843 47bd
00000320: 1201 13bd 0800 133c 00af 2dbc c5b9 40bd
00000330: aaff 0fbd 7851 783c d6fc d23a 27df f23c
00000340: 503f 513c cb2f eabc 0612 8c3b 7ef7 c83c
00000350: a9de f13c b11f e3bc ab33 b9bc 9b62 773c
00000360: 94ba a63c c8b6 0dbc 51dd 27bd 98bf a03b
00000370: 10bf 27bd 9dd1 0ebd 0b7c a33c 04e6 083d
00000380: 5545 d63c ce0b d03c 027a f53c 1c25 003c
00000390: eb53 aabc 74f9 00bc ffe9 4d3c 0b20 163c
000003a0: a7d9 f83c d853 6ebc fc79 49bc 1375 003d
000003b0: 2a33 a9bc ba5b 10bd 87da 013d 5b5d 893c
000003c0: 2cf2 3fbd 806c 18bc 9d3d 48bd f8e1 0d3d
000003d0: 989b 80bc de18 e23c a04a 6a3c 24a6 da3c
000003e0: f2d8 9b3c 9f10 2bbd 5cf6 9dbc 002a 403b
000003f0: e34e 933c 5acd 23bd b0e6 f4bc 8a31 04bd
0.009428927 -0.018584974 0.038434062 -0.019088048 -0.04513048 -0.023669608 -4.5619618e-05 0.02413437
0.030399559 0.008907206 0.027478654 -0.046904154 -0.0057369927 -0.02099717 0.0026260577 -0.009651947
0.01565666 -0.03178288 -0.0055307867 -0.019577213 0.03082866 -0.014968008 -0.029722515 0.0028094663
-0.04287473 -0.009849537 0.028462699 0.02375688 0.024910623 -0.041071936 -0.038102396 -0.014419558
-0.034864195 0.0032735616 0.02632824 0.004648512 0.035407748 -0.03527646 0.0074011646 -0.02986677
0.03062155 -0.0032296441 -0.041720934 0.0011336684 0.010179015 0.017598905 0.02470209 -0.015919147
-0.039519567 -0.010203522 0.002299758 0.037376806 -0.037284296 -0.013977861 -0.01324615 0.037984967
-0.045012373 0.028970186 -0.008918404 0.022981059 -0.01576961 -0.01783843 0.03526263 -0.038822066
0.0215846 0.026384238 0.010273211 -0.04444335 -0.045241367 0.006037415 -0.0055026165 -0.020171892
-0.0016461969 -0.015090054 -0.032818805 -0.038650297 -0.041212935 0.03775682 -0.039984357 -0.034514308
-0.041979123 -0.017535742 0.01796705 -0.024625862 -0.023042984 -0.01713366 0.0024142016 -0.00055087585
-0.03869969 0.03864314 -0.046212137 0.03498104 -0.029144127 0.018869955 -0.043792043 0.022509515
-0.016946245 -0.019257808 -0.021442702 0.01847423 -0.04041837 -0.03657809 -0.00090686657 -0.04042676
0.02599591 0.024291005 0.028860707 -0.04017751 -0.015083824 -0.03436334 0.04152889 0.03182675
-0.0018248898 -0.03013414 -0.0105222855 -0.03439754 0.032997638 -0.041895416 0.032077853 -0.007621143
0.017788356 -0.018616354 -0.016354714 0.028746706 0.033583865 0.026484419 -0.0133866 -0.03878441
0.020705655 0.037721332 0.040967505 0.025347121 -0.029110156 -0.01523582 0.030644815 0.029721536
-0.012583784 0.02842411 -0.0057985447 -0.034173824 0.004454452 -0.03898916 -0.021531094 -0.04839844
0.012981427 -0.037204225 -0.04789823 0.0050341734 0.007184235 0.029317077 0.02637962 -0.045443848
-0.03521346 -0.003434714 0.03350191 -0.04018008 -0.0330175 0.030888014 -0.027801145 0.008912547
-0.039096 -0.034170598 0.030647518 0.00016509842 0.0010322894 -0.03079168 0.0019513585 -0.03947034
-0.044344023 0.016094834 -0.010426503 0.0039364323 -0.039927773 0.038678657 -0.030387044 0.028336637
0.03101378 -0.026882226 -0.035683617 0.03293328 0.0072142677 0.019578319 -0.04479122 0.015305469
0.020090573 0.033625092 -0.0022347309 -0.026191488 0.011157538 0.006491194 -0.015930157 0.028017879
-0.0069594057 -0.030013803 -0.043590967 0.002745647 0.008517358 -0.035404883 -0.018196361 -0.04864803
-0.035889693 0.008972175 -0.010600805 -0.047052164 -0.03515593 0.015156142 0.001609708 0.029647423
0.0127714425 -0.028587243 0.0042746095 0.024532076 0.029525118 -0.027725073 -0.022607645 0.015099193
0.02035264 -0.0086495355 -0.04098255 0.0049056523 -0.040953696 -0.03486787 0.01995661 0.033422485
0.026156107 0.025396254 0.029965404 0.007821348 -0.020791968 -0.007871974 0.012567996 0.009162913
0.030377222 -0.014546357 -0.01229715 0.03136165 -0.02065428 -0.035243727 0.031702545 0.016768148
-0.046861812 -0.009303212 -0.048886884 0.03463933 -0.015699193 0.027599748 0.014300019 0.02669055
0.019024346 -0.041763898 -0.019282512 0.002932191 0.017981952 -0.03999076 -0.029895157 -0.032273807

sequential_1/conv2d_4/Conv2D_bias f4 [32]
00000000: 4915 abbb 53ef 8bbb fc32 21bc d99f 83ba
00000010: 8721 2bbc b0b8 0abc caf9 c33b 8657 a2bb
00000020: 5e85 5e3b 2bf6 6339 4930 5dbb 0ae3 abbb
00000030: e05d ddbb b4df 9bbb a12c c7bb efe7 3f3b
00000040: b5be de39 4621 0e3b 587a 01bc c0bb c4bb
00000050: 239e c03b be35 0f3b 0295 1fbc 7d32 993b
00000060: 7596 bfbb c378 983b 224a 6f3a b7c3 d6bb
00000070: 84f9 fcbb 5bb0 c6bb 8059 f9bb 00e1 3abc
-0.0052210432 -0.004270473 -0.009838816 -0.0010042145 -0.010445005 -0.0084668845 0.005980705 -0.0049542813
0.0033954005 0.00021740112 -0.0033750704 -0.005245571 -0.0067555755 -0.004756892 -0.006078318 0.002928253
0.00042485227 0.0021687313 -0.007902704 -0.006003827 0.0058782264 0.0021852101 -0.009740116 0.004675208
-0.0058467933 0.004653068 0.0009128173 -0.0065540927 -0.0077201743 -0.0060635037 -0.007609546 -0.011406183

sequential_1/conv2d_5/Conv2D/ReadVariableOp f4 [64, 3, 3, 32]
00000000: 68c6 75bc 2bd2 97bc 6157 4f3d 107d d93c
00000010: 3611 3a3d 4fbe e73c e646 afbd 3699 6abd
00000020: f6d1 2d3c dde0 09bd 65b0 803d 8680 7fbc
00000030: 318e de3c 3f79 3bbd e413 1d3b 1b37 b0bd
00000040: 87c1 943d 9e6f b43c a1b2 26bd 97a2 abbb
00000050: 97a2 8bbd df17 883d 6275 96bd b6ef 873d
00000060: d4a6 c23c 5b76 9b3d d358 b33c be8c 7e3d
00000070: c28b 113d 8e4b 903d 00a0 c039 d868 b4bd
00000080: ec4b 86bc c44f a13d 24ad 9abd a05b 40bd
00000090: a301 023c ad6a 22bd 9f20 5fbd 46f0 093d
000000a0: 6d46 b3bc 7733 ca3c 58af 103c 2cd4 c9bb
000000b0: 4e9c 33bc ad18 423d ddd2 b63b b105 343d
000000c0: 3b9f 99bd bc6b 7abd a4d4 05bc 99e8 9d3d
000000d0: d9d1 5f3d 6503 52bd 4be9 92bc 3e00 2fbd
000000e0: e680 01bd b774 b03c 538f 89bc 3e6d 1bbc
000000f0: 514e 4cbd 8955 54bc 0128 8ebd 1abb 3d3d
00000100: 4b63 37bd 77ce b33c 1e50 97bd e731 4bbd
00000110: 40ec 893c 88b2 9dbc a51f 043d 844f b9bd
00000120: 4958 59bd 6584 103d bbca 7fbc 4010 8fbc
00000130: 70ac 47bc 93b8 bd3b b094 983d 6d98 7abd
00000140: e82d 9b3d a119 e5bc 43fc 3cbc 41a2 37bc
00000150: bbf1 66bd ef76 853d 3b54 fa3c 020c acbd
00000160: 776a 79bc 3ece a3bd 7401 e13c 659e c13c
00000170: f36f fbbb 1e72 e7ba 1ca1 d1bc 4342 7ebd
00000180: 80f6 543c 895d 8d3d 9a7d cdbc 7620 193c
00000190: c46e 2abd d8f6 7f3d d347 5bbd 4d51 47bd
000001a0: 4098 0c3d b26f 49bd e0ec c13c d74c 913d
000001b0: baca b0bd eeec 9c3d ce92 4d3d 587c fd3c
000001c0: 7e0c ff3c 1202 363c b0f9 b3bb f17c dc3c
000001d0: bab5 77bc 152a 313d b88c 71ba 2105 d53c
000001e0: a475 46bd 63de 8b3c 89b7 1f3d 16f8 813d
000001f0: d478 423c e396 423d 9334 a53d 15d5 bfbc
00000200: 032a 84bd 7691 313d 876b 763b 4e8e 0b3d
00000210: 2132 a3bd ec22 153d c2ff a1bd 4f9e 0ebc
00000220: fb5b 93bd c035 2dbd 5f6e 88bd ef6a 14bd
00000230: c17f a3bd c590 b1bd 2517 a0bc b611 a7bd
00000240: b817 9ebd a888 4dbd 0568 863d cc92 fa3c
00000250: c8c0 5839 c828 83bd dc8e 30bd 6351 0b3c
00000260: 20c8 e1bc 61bc 853d 0c1f ffbc 6198 10bd
00000270: 6102 22bc 8916 193d e0bf 1d3d 819d f73c
00000280: 5a3a 3a3d b163 683d 7a12 473d c821 71bb
00000290: 81f9 2d3d bbaf 543d a277 91bc 926f 083d
000002a0: 50b7 a3bb 4337 b8bc 7cca 37bd dd9f 313d
000002b0: 7a38 8bbd 1a79 dbbc a64a 693c a61b 7fbd
000002c0: bad6 c03a f08a bd3c aa64 c5bc af09 f93a
000002d0: ae20 fbbc 7b19 9dbd f3b2 8a3d d32c 043d
000002e0: 8710 4b3b 8bef 34bc fa14 34bd 18f0 5bbd
000002f0: 5688 8d3d c289 473d 5350 1cbd 7135 5ebd
00000300: d038 033d fee8 bc3d 6f22 88bd f8b9 af3d
00000310: 3e71 03bd 0941 e93b a19f aabd 3f7d d73c
00000320: 60cb 8b3d 8ed4 87bd 0603 39bd 8c83 853d
00000330: 198c 89bc 50aa 803d 0de2 cdbc 59c6 533d
00000340: 3972 c53c 4b9a 473d 9648 793d 4ac0 4bbd
00000350: a80a a53d 0485 af3a 93a0 a13a 6e6b a1bd
00000360: a8e5 e939 19f3 993c 7267 92bd 6677 8ebd
00000370: 909f 19bc df5f 993d c1c4 01bd 0705 503d
00000380: dbb5 3ebd ebb8 2fbd 9b2a 663d 38ca aabd
00000390: 8e74 a4bd f22d a13c 14b8 21bd 1ba8 acbc
000003a0: 5606 54bd daed 463d ff23 093d ad01 773d
000003b0: d6b5 6c3d 361c b4bd 7c5b 693d cf5c 893c
000003c0: 326c 81bc 479d d8bc b96b 883d 6947 77bc
000003d0: 52c5 36bd 9344 17bb ada4 adb8 dd94 f2bc
000003e0: 3dc3 0c3d bab3 53bc 9d56 483d 97da 07bd
000003f0: e516 323d f8ba e73c 8f39 923c a431 5bbb
-0.015000917 -0.018532833 0.05062044 0.026548892 0.04542657 0.028288988 -0.08558445 -0.05727502
0.010609141 -0.033661712 0.062836446 -0.015594607 0.027167412 -0.045769926 0.0023968155 -0.086042605
0.07263475 0.02202588 -0.040697698 -0.005237888 -0.06818121 0.06645178 -0.07346608 0.06637518
0.02376119 0.07590934 0.02189294 0.06214594 0.035533674 0.07045661 0.00036740303 -0.0880906
-0.016393624 0.07876542 -0.07552555 -0.04696238 0.007934961 -0.039652515 -0.05447447 0.03367641
-0.021884168 0.024682743 0.008830868 -0.006159326 -0.010962559 0.047386814 0.005579336 0.04395074
-0.07501074 -0.0611379 -0.008168373 0.0771038 0.054643486 -0.05127277 -0.017933508 -0.04272484
-0.031617068 0.021540029 -0.016791975 -0.009486495 -0.049879376 -0.012959846 -0.06941224 0.046321012
-0.044772428 0.021949036 -0.07388328 -0.049608137 0.016836286 -0.01925017 0.03225674 -0.090483695
-0.05306271 0.03528251 -0.0156123 -0.017463803 -0.012187108 0.005789825 0.07450235 -0.06118052
0.07577115 -0.027966322 -0.011534753 -0.011208118 -0.056382876 0.065168254 0.030557742 -0.08400728
-0.015223137 -0.07998322 0.027466513 0.023635099 -0.0076732575 -0.0017657911 -0.025589518 -0.06207491
0.012998223 0.06902606 -0.025084306 0.009346118 -0.04160954 0.062491268 -0.053535294 -0.04866152
0.034324884 -0.049178787 0.023672521 0.07094734 -0.08632417 0.07662378 0.050188832 0.03094308
0.031133886 0.011108892 -0.0054924116 0.026915045 -0.015119011 0.043253023 -0.0009214389 0.026003422
-0.048452035 0.017073816 0.038993392 0.06346147 0.011869628 0.047507178 0.08066668 -0.023417035
-0.064533256 0.043351613 0.0037600712 0.03407126 -0.07968546 0.036410257 -0.0791011 -0.008704736
-0.07195278 -0.042287588 -0.066616766 -0.036234792 -0.079833515 -0.08670191 -0.019542286 -0.08157675
-0.07719368 -0.050179154 0.06562809 0.030587576 0.00020671182 -0.06404263 -0.04310499 0.008503291
-0.027561247 0.06530071 -0.031142734 -0.03530157 -0.0098882625 0.037375007 0.038513064 0.03022647
0.045465805 0.056735698 0.048601605 -0.0036793817 0.042474274 0.051925402 -0.01775724 0.033309527
-0.004996218 -0.022487288 -0.04487084 0.043365348 -0.067978814 -0.026791144 0.014238989 -0.062282227
0.0014712431 0.02313754 -0.024095852 0.0019000078 -0.030655231 -0.07670876 0.06772413 0.03226931
0.0030985193 -0.01104344 -0.043965317 -0.053695768 0.0691077 0.04871536 -0.03816254 -0.054250184
0.032036602 0.09224127 -0.06647193 0.085803926 -0.032090418 0.0071183485 -0.08331228 0.02630484
0.068259 -0.066323385 -0.0451689 0.06519231 -0.016790437 0.062824845 -0.025132203 0.05170283
0.024102317 0.04873113 0.06086024 -0.049743928 0.08058673 0.0013391082 0.001233118 -0.07881819
0.0004461233 0.018792676 -0.07148637 -0.06956367 -0.009376422 0.07488989 -0.03168178 0.050786044
-0.04656015 -0.04290096 0.056192975 -0.083393514 -0.080300435 0.019675229 -0.03948219 -0.021076253
-0.051763855 0.048566677 0.033481594 0.060304333 0.0577906 -0.08794443 0.056972012 0.016767887
-0.015798662 -0.026442183 0.066611715 -0.015092709 -0.044621773 -0.0023081645 -8.279956e-05 -0.029612
0.03436588 -0.012921268 0.048910726 -0.033167448 0.043478865 0.028287396 0.017849712 -0.0033446336

sequential_1/conv2d_5/Conv2D_bias f4 [64]
00000000: 11b5 09bc 44db df3b 644c 23bc feb7 9b3b
00000010: 89e8 f9bb 20cf 0bba b6a1 dfbb 18d2 bfba
00000020: 4138 2dbb 2fb1 1fbb 396d 22bb 1285 c0bb
00000030: 70b5 033a 8849 6dbb 0000 0000 fbbd 03bc
00000040: f0a4 903b 1afe 00bb 80f6 66bc 5550 663b
00000050: 0000 0000 9f00 b43b 3915 c73b 5bd4 e73a
00000060: dafd 953b 3243 f43b 8886 7cbb c861 22bc
00000070: 8a2a 56bb cc0c f8bb ef2d 4d3c f452 9ab9
00000080: 6975 f53a 88cf d43b 0000 0000 ef2c fe3b
00000090: 8db0 ebbb 3127 ab3b 8147 fb3a 6f73 423c
000000a0: 759f 033a e8e4 23bc 2a48 453b 65c4 11bb
000000b0: 3186 533b 9345 fbbb f1a0 ddbb a827 183b
000000c0: a575 7c3b 99a2 0d3c 7707 353b 4331 50bb
000000d0: ee75 b13b 23d9 213b 913f 6e3b 14b7 e13b
000000e0: 5e25 25bc 0e0c 4abb c524 a3bb 5eff 063c
000000f0: ee12 3a3a b80f 1ebb 396f 07bc 90be d3ba
-0.008404986 0.0068315584 -0.009966943 0.004752158 -0.0076265973 -0.0005333293 -0.0068246974 -0.0014634756
-0.0026431235 -0.0024367084 -0.002478434 -0.005875238 0.000502429 -0.0036207158 0.0 -0.0080409
0.0044141933 -0.0019682706 -0.014096856 0.0035143096 0.0 0.005493238 0.006075528 0.0017687188
0.0045773806 0.0074542994 -0.0038532335 -0.009911008 -0.0032679164 -0.007569885 0.012523158 -0.00029434974
0.0018727008 0.006494466 0.0 0.0077568213 -0.0071926774 0.005223178 0.001917109 0.011868342
0.00050210144 -0.010003306 0.0030102828 -0.0022242304 0.003227603 -0.007668206 -0.0067635705 0.0023216996
0.003852227 0.008644723 0.0027622858 -0.0031767644 0.0054156696 0.0024696074 0.0036353806 0.0068882797
-0.01007971 -0.003082994 -0.0049787485 0.008239595 0.00070981577 -0.0024118256 -0.008266264 -0.0016154815

sequential_1/dense_2/MatMul/ReadVariableOp/transpose f4 [64, 128]
00000000: ab03 a83d d10f cd3c 6070 f8bc be72 58bc
00000010: 7d69 05be 8645 ffbd 84e5 0fbe 3769 87bd
00000020: be8e a8bd 0d66 62bc 2ed8 a3bc fded d53d
00000030: 97f0 003e 7ab2 e7bd 2cc6 303d 0c53 5c3c
00000040: f1ce 673d 1c7d da3d c002 cb3c ebce eb3d
00000050: 9815 f1bc 0b8a e1bd 9a8d 613d 7a39 d1bd
00000060: 0b4c 1d3d fc1f 1ebe 5ed8 08be e3e8 a53d
00000070: bad9 cc3d e80b cf3d d4ec d3bd f40c f43d
00000080: 6b19 f83c 98d0 2ebe 8e68 be3d 4794 783b
00000090: b5bd 5b3b 55c8 81bd 8337 dd3d f50c 9b3c
000000a0: 8530 2d3e cec8 a1bd 04f8 813d db5b d2bd
000000b0: 168e 29bd f78c 3a3c b621 c93d 4768 953d
000000c0: 6ba9 80bc 7ecb c2bd 0040 f73d 1fbd cf3d
000000d0: e5b0 b8bb e367 2bbc 5f79 2c3e 991e 23be
000000e0: c726 723d 75c3 f2bd 6463 1dbe fdba 1a3e
000000f0: dd03 303e e2d2 58bc 8132 0e3d ba4b 6dbd
00000100: e129 a33d 29fe a2bd 6732 a0bd e0df 25be
00000110: 92ce e5bd 7440 e13d a68a 983d 4a83 1b3d
00000120: 1a9f 233e d68f 21bd 4c80 2fbe fea0 103d
00000130: 1be8 183e c362 2bbe a0a7 26bc beb4 c0bd
00000140: 916e 5dbd bd59 e4bd cb01 173e 8e5d 5cbd
00000150: 7e30 9ebd 6b06 25be e134 cebb e2b3 753d
00000160: 5fa1 c63d aa07 64bd 457d 1f3e a3b4 01be
00000170: c945 233e d0d2 95bd 285a 2abd d5b1 0f3d
00000180: 30c5 803d ad7e 20be 3488 8f3d ce8c 1e3e
00000190: 820f e33c 68a4 243d f736 9dbd c721 95bd
000001a0: e4eb babd d060 013e eb87 013d ca3d a6bd
000001b0: 9bf2 2cbe 9271 fc3c 2372 d23d 9c82 11be
000001c0: 6dae cc3d da19 74bd 70fc aa3c 9e56 3b3d
000001d0: cc00 373d 1226 ae3b e93f 40bd e756 373d
000001e0: 8b38 cf3c c32b 07be e0f1 ce3d 7451 dc3c
000001f0: d009 18be e014 9dbd 8462 1a3c 18e4 263e
00000200: 3675 ee3d d8bb ae3c 8069 4cbb 92f5 cdbd
00000210: d637 f13d b8f7 1abe 48be 73bd 08fe a1bc
00000220: 64a8 2ebd 102c 863d 67e5 ccbd 4c75 8abd
00000230: 25cd a9bd 40b7 36bd 577c 243e 7818 1dbd
00000240: ef71 cebd 621f b33d 18a7 613d 2e16 9e3d
00000250: 0630 16be 50db 8bbd d8e5 34bd 5bdf 293e
00000260: 68a2 30be 6eb6 9b3d b6cf b83d 6080 27bc
00000270: e0b6 cdbb 1dae 163e 7abe cabd 0892 f53c
00000280: 80ed 98bc c018 dc3c 4896 b83c 29e9 0b3e
00000290: 34f9 843d 662a f63d a676 2dbe 5631 c03d
000002a0: b41a d9bd 82be ab3d 7867 fabd 5582 acbd
000002b0: b20a bdbd b8ce b63c 788d 283d 860f 07be
000002c0: 6ede 8f3d eae7 813d 0d12 d3bd 00e0 b23a
000002d0: 642e 0a3d a437 1cbe 45f4 2fbe 4eb0 c83d
000002e0: 3ff3 343e 2ca1 883d 90bc 4ebd 6689 31be
000002f0: 853e 053e 534d 103e 6d34 11be 25b3 2cbe
00000300: 7b85 d8bd a079 1abc f28e cebd 3ee3 ad3d
00000310: 3873 38bd 9b3f 033e 9881 1e3d d80e 883d
00000320: e2c3 803d d380 123e 032e 21be fb5f d8bd
00000330: 3cb5 323d d3a6 023e b0e0 d2bc 27c1 86bd
00000340: 71bd 17be 78b7 19bd 40c4 133c 9806 36bd
00000350: 8f60 2e3e 96d3 dd3d 60ae 823c 98b8 27be
00000360: c037 85bc 5ace c8bd c567 b9bd 41f1 a9bd
00000370: c7dd d9bd 9542 1b3e 36a4 10be 804e 76bc
00000380: e0b9 863b 7874 0cbe 50a3 5b3d eab0 9bbd
00000390: cd3e 2c3e f984 04be 3269 9d3d 1192 0c3e
000003a0: 81df 173e 44d0 bdbd d074 23bd b60e f93d
000003b0: 41fd 163e 80ce 8dbb 9ddd 2c3e 4079 1dbe
000003c0: 9831 2e3d 4fef 103e bf0c 123e dca9 b9bd
000003d0: a1de f4bd 9fd3 c6bd 2d1c 30be 28c5 03be
000003e0: 4ecd 93bd 8222 fe3d 4209 5bbd f06a 4cbd
000003f0: a45e 09be f231 67bd 3022 17be 1275 a53d
0.082038246 0.025031956 -0.030327022 -0.01321095 -0.13028522 -0.124644324 -0.14052397 -0.06611865
-0.08230351 -0.013818276 -0.020000543 0.10445783 0.12591778 -0.113133386 0.04315774 0.013447534
0.05659384 0.10668394 0.024781585 0.11514076 -0.029429242 -0.11012658 0.055066682 -0.10216041
0.0384026 -0.15441889 -0.13363788 0.0810106 0.100024655 0.10109693 -0.10347906 0.11916533
0.030285558 -0.1707176 0.09297286 0.0037930177 0.0033529822 -0.063370384 0.10801604 0.018927077
0.1691304 -0.078996286 0.06346133 -0.10271426 -0.04139527 0.011386148 0.09820883 0.0729528
-0.015705785 -0.09511469 0.12072754 0.10143494 -0.005636322 -0.01046178 0.16843174 -0.15929641
0.059119012 -0.11853687 -0.15369946 0.15110393 0.17188974 -0.013233872 0.034716133 -0.057933547
0.07966972 -0.079586335 -0.078221135 -0.16198683 -0.11221041 0.109986216 0.0744832 0.037967004
0.15978661 -0.039443813 -0.17138785 0.035309784 0.14932291 -0.16736893 -0.010171801 -0.09409474
-0.054060522 -0.11149929 0.14746778 -0.05380016 -0.07724093 -0.1611573 -0.0062929248 0.059986003
0.09698748 -0.05567137 0.1557513 -0.12666564 0.1594459 -0.073156 -0.041589886 0.035081703
0.062876105 -0.15673323 0.070084006 0.154834 0.027717356 0.040195853 -0.07676499 -0.07281833
-0.09127024 0.12634587 0.031623762 -0.08117254 -0.16889422 0.030815873 0.10275676 -0.1420998
0.099942066 -0.059594966 0.020872325 0.0457369 0.044678494 0.005314597 -0.04693595 0.04476061
0.025295516 -0.13200288 0.10104728 0.026894309 -0.14847493 -0.07669997 0.009422902 0.16297948
0.1164345 0.021329805 -0.0031190813 -0.100566044 0.11778228 -0.1513356 -0.05950764 -0.019774452
-0.04264106 0.06551373 -0.100046925 -0.06760654 -0.08291081 -0.044608355 0.16063057 -0.038353413
-0.10080325 0.0874622 0.055090994 0.07719074 -0.14666757 -0.0682894 -0.04416451 0.1658911
-0.17249453 0.07603155 0.09023993 -0.010223478 -0.006277904 0.14714856 -0.09899612 0.02997686
-0.018667936 0.02686727 0.022532597 0.13663162 0.06492844 0.120198056 -0.16939792 0.0938441
-0.10600796 0.08385946 -0.12226766 -0.08423296 -0.092305556 0.022315368 0.04115054 -0.13189515
0.07024847 0.06343062 -0.10306177 0.001364708 0.033735648 -0.152556 -0.17183025 0.097992525
0.17670916 0.06671366 -0.050472796 -0.1733757 0.1301213 0.14091997 -0.14180155 -0.16865213
-0.105723344 -0.009428412 -0.100858584 0.08490609 -0.045031756 0.12817232 0.03869781 0.06643456
0.06287362 0.14306955 -0.15740208 -0.10565182 0.04362987 0.12758951 -0.025741905 -0.0657981
-0.1481836 -0.037528485 0.009018958 -0.044439882 0.17029022 0.108313724 0.01595229 -0.1637901
-0.016261935 -0.098049834 -0.090529956 -0.08297969 -0.10638004 0.15162118 -0.14125142 -0.015033364
0.0041115135 -0.13716304 0.053622544 -0.07602103 0.16820832 -0.1294135 0.0768608 0.13727595
0.14831354 -0.09268239 -0.039906323 0.12161009 0.14745046 -0.0043275952 0.16881414 -0.15378284
0.042527765 0.14153789 0.14262675 -0.09065601 -0.119565256 -0.09708332 -0.17198248 -0.12868178
-0.07216893 0.124089256 -0.053475626 -0.04990667 -0.13415009 -0.056444116 -0.14759135 0.0807897

sequential_1/dense_2/MatMul_bias f4 [64]
00000000: aea3 0cbc 0000 0000 447f 57bc 07f7 ebba
00000010: a975 843c 0a4f 39bc defd 033c afa3 43bc
00000020: cac9 17bc 0000 0000 98e5 a83a ce43 c0bb
00000030: 48f7 f4bb fce2 a73b 6214 75bb e851 06bc
00000040: 564e 6cbb 9443 4e3c 460b edbb 4447 54bc
00000050: 6e3d a53b 9146 2dbc 46d5 993b cabb a6bb
00000060: 04dd 51bc 4172 263c 0000 0000 2881 ef3a
00000070: 2ad8 25bb d9ea 003b c04d bbbb 0a2e 4eba
00000080: a325 e3bb 9ec1 543a e923 b13a 464b 91bb
00000090: 0000 0000 44d7 de3a 228d e5bb ee7a c9bb
000000a0: 93aa 99bb a410 853b 98b8 583c 77b4 30bc
000000b0: 6893 61bc 96a9 983c aa73 403c 4845 0f3c
000000c0: bac9 a7bb ced7 463b 2e6e a4bb abe3 5e3c
000000d0: bf4b f23b abbe c4bb 3422 b2ba 0000 0000
000000e0: dc66 9f3b be22 4bbc 2338 1b3c 624f 883b
000000f0: f0b5 5b3c fbc7 c7bb 1fa6 a1bb 8288 4ebc
-0.008583946 0.0 -0.013152901 -0.0018002697 0.016169386 -0.011310348 0.008056132 -0.011940881
-0.009264419 0.0 0.0012885807 -0.005867458 -0.0074757673 0.005123494 -0.0037396182 -0.008198239
-0.0036057434 0.012589354 -0.00723401 -0.012956444 0.0050427234 -0.010575906 0.0046946136 -0.005088304
-0.012809042 0.010159076 0.0 0.0018272744 -0.0025305846 0.001967123 -0.0057160556 -0.0007865137
-0.006931977 0.00081160094 0.001351473 -0.004434022 0.0 0.001700141 -0.0070053497 -0.0061486876
-0.0046895235 0.0040608216 0.013227604 -0.010785214 -0.013768055 0.018635552 0.011746326 0.008744545
-0.005120483 0.0030341032 -0.0050180173 0.013604085 0.0073942835 -0.0060041747 -0.0013590516 0.0
0.0048645567 -0.01239842 0.009473833 0.004159854 0.0134100765 -0.0060968376 -0.0049331333 -0.012605788

sequential_1/dense_3/MatMul/ReadVariableOp/transpose f4 [1, 64]
00000000: 268d 303e fa54 95be 78f5 7d3e bdc0 053e
00000010: 7c23 c4bd 25b0 f03d ca91 c03c 1879 093e
00000020: 3d0c 5dbe 00ae e63d ebab 5ebe 6084 373d
00000030: 9720 9abd f970 9ebe 8a2e fd3d 7331 3cbe
00000040: abed 85be 0d02 12be 498a c83d 64a8 5b3e
00000050: a107 24be b7ee 7d3e 4829 92be 3e43 203e
00000060: 4044 5b3e 850b cdbd a643 5bbe 9560 723e
00000070: b399 ee3d 2b5e 33be 9d35 4cbe 1e1d 953e
00000080: 33ed 51be c9ea 45be efd1 7bbe 4db4 8fbc
00000090: b415 753e 9f97 2dbe 84e9 bc3c bf4c 993e
000000a0: c821 803e 7533 7bbe b2a6 92bd c6e7 b83d
000000b0: cb77 293d 8ec2 e9bd 073f 22bd ece5 07be
000000c0: 6b9c 693d 9080 4f3e 6116 853e 0331 33be
000000d0: 9bc6 a8be 18b6 953e ac56 303e f0e3 f93c
000000e0: b4f2 c53d f98c fbbd d602 b0bd a8c6 533e
000000f0: 1729 543d 8eb6 3b3e c3cb 753e 0a2c 733e
0.17241344 -0.29166394 0.2480067 0.13061805 -0.095770806 0.11752347 0.023507018 0.134251
-0.215867 0.112636566 -0.21745269 0.044803977 -0.07525747 -0.30945566 0.12362392 -0.18378238
-0.2615789 -0.14258595 0.09792001 0.21450955 -0.16018535 0.24798094 -0.2854712 0.15650651
0.21412754 -0.10011963 -0.21412525 0.23669656 0.116504095 -0.17516391 -0.19942327 0.29123777
-0.2050064 -0.19327845 -0.24591802 -0.017542029 0.2393406 -0.1695237 0.023060568 0.29941365
0.25025773 -0.24531348 -0.07160701 0.09028582 0.04137401 -0.114140615 -0.03961089 -0.13271302
0.057033937 0.20263886 0.25993636 -0.17499165 -0.32964024 0.2924049 0.17220563 0.030504197
0.096654326 -0.12282748 -0.08594291 0.2068125 0.051797 0.18331358 0.2400351 0.23747268
