app/src/main/assets/model.tflite (tflite, 373432 bytes, 10 tensors)

sequential_1/conv2d_3/Conv2D/ReadVariableOp f4 [32, 11, 11, 4]
00000000: f4b7 4c3d 568e b2ba 331b 973c 65f7 fabc
00000010: 8357 283d eba8 363d b29e 793c 77d4 0b3d
00000020: 2f7c 123d 88e4 ce37 be4e 9b3a 782f c93b
00000030: a6c4 76bc 0e37 2b3d 917c 5b3b b240 013d
00000040: 2fc2 393d 36a4 053d bfff 683c 71bb 60bc
00000050: d0c4 65bc 1132 e13c e6d8 c93c f9ed 963c
00000060: be00 b3bc 07c0 2e3c b9a9 503c d105 913b
00000070: 6f8b 283d 8d3f 6f3c f9f6 0cbc d99b 213d
00000080: 18ac 193b a71a a7bb 00e4 01bd 9444 5a3c
00000090: cb84 d0bc 9863 053d f192 c8bb 9e85 56bc
000000a0: 0bc0 bf3c 8d1b 43bc c158 fb3c 9134 e43c
000000b0: 1b94 0a3c 7999 4d3d 36b2 053d 7712 00bd
000000c0: b210 f73c 3c29 023d f2fc 2abb fda5 48bc
000000d0: 2269 653c 0753 523d 7741 653b 6c67 c93c
000000e0: 0b50 38bc ba8f 83ba aa35 163d e17a 0e3c
000000f0: 0c1e 823c 6865 02bc d719 db3c 035a 09bd
00000100: 9e4e aabc 1c1c 85bc abf7 2abc 2e9e bd3c
00000110: e953 b6bc 107a 93bc 3442 073b c21f 9ebb
00000120: eb83 28bc b71e d0bc 5c1c dcbc 86cc 9bbc
00000130: cf72 d7bb 6d4d cbba bd42 d93c 2ce9 a53b
00000140: 3725 9bbb 94ff 8ebb a2aa 8abc 8d1b 163d
00000150: 5ef8 a83c 8624 c2bb 4042 18bd 1945 e23c
00000160: f74d f33c 7725 3f3c 9fd0 0b3d 0af4 bd3c
00000170: 488f 633d 8a03 183c 909d e73c c8af f4bc
00000180: 3ac0 54bc d468 bc3c be18 553d 7954 05bd
00000190: c034 d93c caa5 703c e613 c63c 6fbf 07bd
000001a0: 8c19 a8ba e12f 183d 8707 1d3c c6a0 bebc
000001b0: 75a9 c4bc 1f41 d7bc 3db8 13bd f154 9cbc
000001c0: ac52 5a3b 28d1 fbbc d50b d03b dfba 033d
000001d0: eb69 90bb c5cb 4c3c 5e68 9fbc a011 98bc
000001e0: 3bbd a23c 7226 c1bc d4e6 06bd 88c0 d1bc
000001f0: 57f9 d33c a35f ddbc 1209 d1bc 6b59 0f3d
00000200: b052 d33c a1a4 b33c 14a1 07bd 99b4 293d
00000210: 7365 a33c a1a9 6a3d 1dfb 15ba 9bfb a7bc
00000220: 81d3 f4bb 4e12 5b3d ebbd a93c 6739 953c
00000230: c15e dd3c 79fc 203d 9cca 273d a2e1 b3bc
00000240: 5c52 913b 70e7 88bb 98d3 dc3c 7306 0d3d
00000250: 4e91 eabc 1610 abbc 1208 34bc a380 853b
00000260: 9441 2ebd 7baa f73b f3a0 3bbd 32ba 5cbc
00000270: bc7c a0bc 3d62 f8bc aa67 183c 8c0b d2bc
00000280: cef3 913a 6042 debc f15b e33c ba15 d63c
00000290: 9624 cf3c dec5 8dbc 8930 09bd a51c 0f3d
000002a0: 086e e5bc 2667 e03c 5e05 27bd 9b9f 2ebc
000002b0: 99b4 cf3c 99af 02bd 684a 51bd b5b1 8c3c
000002c0: 3309 9a3b 50d7 b5bb b873 413d 8db4 ee3c
000002d0: 1476 f83b 75a5 263a 2db8 533c 9c88 e73c
000002e0: 151d 7c3c 1e1a 983c 515d 103c dda4 903c
000002f0: 43a8 893c 42fe bb3b ef22 d13c 2515 cb3c
00000300: b528 903c 673f 373b 34fb 59bc 8df2 0abd
00000310: 49f3 3bb9 625a 143c 9244 31bd 211c 01bd
00000320: 3b71 bcbc 6707 7cbc fab7 06bd ddba 2e3c
00000330: ab50 85bc d41a 37bd 4c92 04bd 5e9f 9bbc
00000340: fcf9 86bb a2d2 df3c d28e 06bc 33d8 13bd
00000350: 445f 0ebd 9797 08bd 9802 bebc 81fe 313c
00000360: 8bc8 9c3c 8c9b 2abc 479f a9bc 6c89 e9bc
00000370: 0699 df3c de29 2e3c e6c5 34bc bf83 003d
00000380: 1490 b5bc 9df1 b03c 3e75 8ebc 978e 96bc
00000390: 9d6a 0fbd 1db1 04bd 1e06 ad3c 2c43 163d
000003a0: 5b48 38bd 82a2 30bc 2a45 70bc ed25 e43c
000003b0: ee75 e73b b1ac cabc cc3e 423b 54a2 d53b
000003c0: 0e0d 53bb 5d4d 0abd 5494 c1bc 34f5 14bd
000003d0: 43bf ac3b e028 c13c fe77 f0bc 61d2 e8bc
000003e0: cd90 b13c f8f8 32bc 447b 8f3c b1d4 60bc
000003f0: b29b e83c 8367 eb3c c82e f0ba cc93 8e3b
0.04998012 -0.0013622742 0.018445587 -0.030635545 0.041099083 0.044594686 0.01523559 0.03413817
0.035762962 2.4663532e-05 0.0011849029 0.006139692 -0.015061533 0.04180055 0.0033490995 0.03155584
0.045351204 0.032627307 0.014221131 -0.0137165645 -0.014023975 0.027489694 0.024639558 0.018424021
-0.02185094 0.0106659 0.012735778 0.004425742 0.0411486 0.014602554 -0.008603805 0.03945527
0.0023448523 -0.0050996128 -0.03171158 0.013322014 -0.025453946 0.032565683 -0.0061210324 -0.01309338
0.023407003 -0.011908424 0.03068197 0.027857097 0.008458163 0.05019519 0.03264066 -0.03126761
0.030159328 0.031777605 -0.0026090709 -0.012246606 0.014002116 0.051348712 0.0034981647 0.024585448
-0.0112495525 -0.0010037341 0.03667227 0.008696289 0.015883468 -0.007958747 0.02674572 -0.033533107
-0.02078944 -0.016248755 -0.010435025 0.023146715 -0.022256808 -0.01800254 0.0020638825 -0.004825563
-0.010285358 -0.025405271 -0.026868992 -0.019018423 -0.0065749655 -0.0015510746 0.026521081 0.0050631966
-0.004734661 -0.0043639634 -0.016927067 0.03664737 0.020626243 -0.005924764 -0.037172556 0.027620839
0.029700262 0.011666647 0.034134503 0.023187656 0.055556566 0.0092781875 0.028273374 -0.029868975
-0.0129852835 0.022999205 0.05202555 -0.032551263 0.026514411 0.014687965 0.02417941 -0.03314155
-0.0012824996 0.037155036 0.009584314 -0.023270022 -0.024006585 -0.02627617 -0.036064375 -0.019083472
0.0033313436 -0.030739382 0.0063490667 0.032160636 -0.0044071577 0.012499754 -0.019458946 -0.018563092
0.019865623 -0.023577902 -0.03293498 -0.025604501 0.02587573 -0.027023142 -0.02551702 0.034997385
0.025796264 0.021929087 -0.0331126 0.041431997 0.019945836 0.057290677 -0.0005721318 -0.020505717
-0.0074715023 0.053484254 0.020720443 0.018215848 0.027022721 0.039303277 0.040964708 -0.021958176
0.004434867 -0.00417798 0.026956365 0.03442998 -0.02863374 -0.020881694 -0.010988252 0.0040741726
-0.04254301 0.0075581647 -0.04580779 -0.013472127 -0.019590728 -0.030320281 0.009302059 -0.025640272
0.0011135282 -0.02713126 0.027753802 0.026133407 0.025286 -0.017306264 -0.033493552 0.034939427
-0.028006569 0.027392935 -0.040776603 -0.01065817 0.02535467 -0.031905744 -0.05109635 0.017174581
0.0047008037 -0.005549349 0.0472295 0.029138828 0.0075824354 0.00063570525 0.012922329 0.028263383
0.015387793 0.018567141 0.008811311 0.017656738 0.016803866 0.005737097 0.025529353 0.024790356
0.017597536 0.0027961375 -0.01330452 -0.03392272 -0.0001792434 0.009054752 -0.043278284 -0.031520966
-0.023003211 -0.015382624 -0.032890297 0.010664669 -0.016273817 -0.04470332 -0.032366082 -0.01899689
-0.004119156 0.027322117 -0.008212762 -0.036094856 -0.03475882 -0.033347692 -0.023194596 0.010863901
0.019138595 -0.010413062 -0.020705832 -0.02850791 0.027294647 0.010630099 -0.011033511 0.031375643
-0.022163428 0.021599585 -0.01738989 -0.018378539 -0.035013784 -0.03239547 0.021121081 0.036685154
-0.04499088 -0.010780932 -0.0146649275 0.027850116 0.007063619 -0.024740549 0.002963948 0.006519595
-0.0032203826 -0.033765186 -0.023630299 -0.036366656 0.0052718236 0.023579061 -0.029354092 -0.028420629
0.021675492 -0.010923617 0.017514832 -0.013722585 0.028394554 0.028735882 -0.0018324489 0.004351115

sequential_1/conv2d_3/Conv2D_bias f4 [32]
00000000: 3c9c 773c 0666 f6bb ab41 d4bb c42c 42bc
00000010: a5fa 8dbc 4602 6bbc b990 8dbc 0379 d4bb
00000020: 7997 9cbb f88a 09bc cdae 8abb 5d1c e73b
00000030: 9ae0 07bc 57fb 01bc 2547 eabb 07bd ecba
00000040: 92e1 49bc db0d 1dbc 6e45 9c3c 4817 473c
00000050: a5e3 bcbb 6900 87bc 5323 85bb 7fa3 00bc
00000060: 9b87 5bbc a5b8 94bc 68b8 36bb 4f78 7a3c
00000070: 59e5 80bc 5ca7 5bbc 1411 47bc 524b 1dba
0.015112933 -0.0075194864 -0.006477555 -0.011851493 -0.01733143 -0.014343804 -0.017280923 -0.0064841523
-0.004778799 -0.008394949 -0.0042322637 0.0070529417 -0.008293295 -0.007933459 -0.0071495944 -0.0018061706
-0.012321847 -0.009585823 0.019076075 0.012151547 -0.005764442 -0.016479688 -0.004063049 -0.0078514805
-0.01339903 -0.018154452 -0.002788091 0.015287473 -0.015734361 -0.013406601 -0.012150068 -0.00060002983

sequential_1/conv2d_4/Conv2D/ReadVariableOp f4 [32, 7, 7, 32]
00000000: a975 8cbc 472c 583c ace1 15bd a2e0 7abc
00000010: 9f3e 04bd 1a83 0dbd c4fa 663b e122 e3bc
00000020: 6643 1cbd 1b04 99bb 0679 08bd 8319 bcbc
00000030: 23dc 7abb 3919 8b3c b684 863c b73e 033d
00000040: 087a aebc b58c 15bd 99d2 f3bc cf0b f4bc
00000050: 81c6 2d3b b08b 3cbd 745d 863c e5fd 9b3c
00000060: fa54 4abd cb9b 183c 9e9e 1d3d 21aa ff3c
00000070: 3807 803c 575d 743c 41f7 2bbc e582 3a3c
00000080: bfee e23b 406c 9dbc c337 c0bc 095e 28bd
00000090: 06b4 473c 6cac 09bd f6b1 9f3b a400 0a3d
000000a0: f921 c3bc 9d2e c83c 150d 2ebd 8a9c d83c
000000b0: 3381 03bb 3739 d7bc 5f84 053c 8297 be3c
000000c0: 774f 193d 982a 35bd dce0 4a3b 1e79 3ebd
000000d0: bfc0 23bd 2b2a 0d3d ee7d d43b 5cf4 35ba
000000e0: f9cd b9bc 3fd3 a5bb b14a dc3c c48e ecbc
000000f0: a71c 133a 85e3 23bd ee05 17bd 8fb7 93bc
00000100: c4db 88bc c8d9 b8bc de87 a2bc 7240 56bc
00000110: 6a13 47bd f4f1 4abc 828e a237 d593 a33b
00000120: b68b 71bc 099a 72bb b7a1 b8bc ba07 ddbc
00000130: 2e2f d13b c02b 913c 35bf c9bb f7b5 873c
00000140: 7782 d83c 21ca f4bc 9288 013d a5ee 0c3c
00000150: 2284 063d 01a0 79bc 9e71 c3bc 16ce ff3b
00000160: 094f 10bd bb9d db3c bc91 a63c 12a4 e0bc
00000170: 40db 273c 6c94 96bb 5748 89bc f8ef 0fbd
00000180: f544 0a3c 1204 00bd 8b06 e73b 13e4 14bd
00000190: 27a4 04bd f031 793c 5394 893c 990a c63c
000001a0: 1c59 95bc 28b5 22bd dbb6 05bd bd0c 9c3b
000001b0: 6a7f 9fbb e5c0 eb3b 96f9 b1bc 529d d53c
000001c0: d728 ef3c f722 32ba e97e 39bc 7935 3bbb
000001d0: 8055 e6ba 40b3 943c e7db b33c 7b54 743c
000001e0: f152 d0bc b3d2 afbc 4350 113d 3432 d2bc
000001f0: 914b bbbb 4648 273c 3426 223d ceea 32bd
00000200: c6c9 ddbc fc27 bf38 8492 00bd 2c6f 1abd
00000210: 84ca b13c f5ed 163d f298 873b 5b27 963b
00000220: 1480 153d 65f9 fe3c cb7a a5bc 1883 e8bc
00000230: 39e7 edbc 3cdc 923c b775 a73c 7c93 28bd
00000240: 5fff 213d d209 5d3b c967 703c ed27 a2bc
00000250: 165f 66bc 6768 383c 4e7a e7bb 63c7 3c3c
00000260: b678 a8bc e2a3 75ba 1a0f 12bd 1e9a 8fbc
00000270: b861 cb3c 1106 2a3c 3d27 0c3d fc30 f33c
00000280: c219 f8bc 9243 d03c 1313 573c aa9e b9bc
00000290: ecb1 ee3c 6d95 813c 2df8 9a3c e6c4 e03c
000002a0: 85ad 38bd 2ce4 7cbc 14b1 b3bc 5cc7 d0bc
000002b0: 8e6c 30bd f7d8 adba 7596 8c3b e735 a33c
000002c0: 7a67 003d 596a e73c b844 153d e091 aa3c
000002d0: 4f07 373c cdbf b23b 280b 16bd dce0 00bd
000002e0: ce61 e4bc b04d 3c3c 71d3 303c 252e 94bb
000002f0: 0090 f3bc 09fe 5fbb 37c4 093b 9ccd 6b3b
00000300: 44b4 333c f2bb 45bd 1c2c 8b3b cb1e f4bb
00000310: c193 47bd 47c2 2bbd 9b91 3b3b f648 47bd
00000320: 2f9b 683c 2ec2 d1bc 6d62 6ebc 7491 babc
00000330: 68c4 1cbd dc82 763c a804 933c e71a ea3c
00000340: c990 d4bb 37dd 943c 9d9c e2bc e21a 37bc
00000350: ed85 28bd d84a 60bc 7448 0ebd b374 c23c
00000360: c98b e8bb dff3 ad3b 9513 0bbd d9e9 0bbd
00000370: c684 9d3b 15eb 5fb9 fe21 08bd 3463 04bd
00000380: 8b4f aa3b 88c4 f0bc 29a1 8b3c e7ed a7bc
00000390: a40e 0bbd c9ab 373c d06c 9d3c 7162 67bc
000003a0: 951c abbc e167 2abd 4dfd 073d 0ed7 c73b
000003b0: 4c14 733c a20e 20bd d238 9a3c a2aa a53c
000003c0: f5e9 5a3c 07ae f13c 5734 0f3d bef5 eebc
000003d0: f0eb 04bd 4773 32bd 1f84 c8bc 24db f8bc
000003e0: 76b7 ed3c 128c c8bc 8b91 933c cb9d 803a
000003f0: 710e 063d b76c 88bc 6c57 223d 6525 c2bc
-0.017145948 0.01319415 -0.03659217 -0.015312346 -0.032286283 -0.034548856 0.0035244683 -0.027726592
-0.038150214 -0.004669679 -0.033318542 -0.022961384 -0.0038278184 0.0169798 0.016420703 0.03204223
-0.021298423 -0.03651114 -0.029763507 -0.029790787 0.0026516023 -0.046031654 0.016401984 0.019041965
-0.049397446 0.009314488 0.038481347 0.031209053 0.015628442 0.014914832 -0.010495962 0.011383747
0.0069254334 -0.019216657 -0.02346409 -0.041105304 0.012188917 -0.0336117 0.0048735095 0.033692017
-0.02381991 0.02443629 -0.042492945 0.026441831 -0.0020066022 -0.0262724 0.0081492355 0.023265604
0.0374293 -0.044230074 0.003095678 -0.046502225 -0.03997874 0.034464043 0.0064847386 -0.00069410144
-0.022681223 -0.005060583 0.026891084 -0.02887667 0.00056118745 -0.0400119 -0.03687089 -0.018031863
-0.016706355 -0.022564784 -0.019840177 -0.013076888 -0.0486025 -0.012386788 1.9378265e-05 0.004991988
-0.014742782 -0.0037018082 -0.02253805 -0.026981223 0.006383798 0.017721057 -0.006156827 0.01656626
0.026429398 -0.029881539 0.031624384 0.008601819 0.032840855 -0.015235902 -0.023857888 0.00780655
-0.035231624 0.02680861 0.020333163 -0.027421985 0.010245144 -0.00459533 -0.016758127 -0.03514096
0.008439292 -0.03125388 0.0070503405 -0.03635032 -0.03238311 0.01520966 0.01679436 0.024174975
-0.018230967 -0.039723545 -0.032645088 0.0047622607 -0.004867484 0.0071946257 -0.021725457 0.026075993
0.029194279 -0.00067953713 -0.011321762 -0.0028565808 -0.0017573088 0.01815188 0.021955444 0.01491272
-0.025430175 -0.021462774 0.035476934 -0.025658704 -0.0057157953 0.010210102 0.039587215 -0.04368096
-0.027073752 9.1150374e-05 -0.03138973 -0.037703678 0.021703012 0.036848027 0.0041381055 0.0045823283
0.036499098 0.03112478 -0.020200154 -0.028382823 -0.02904092 0.017927282 0.020441873 -0.041156277
0.03955018 0.0033727777 0.014673182 -0.019794429 -0.014060756 0.01125536 -0.0070641404 0.011522147
-0.020565372 -0.0009370429 -0.035658933 -0.017529543 0.02482687 0.010377423 0.034217108 0.029686444
-0.03028572 0.025422845 0.013127106 -0.022658665 0.029137574 0.015818322 0.018917168 0.027437638
-0.045087356 -0.01543526 -0.021935023 -0.025485687 -0.043072276 -0.0013263513 0.004290397 0.019923164
0.031348683 0.028248953 0.03644249 0.020821512 0.011171176 0.0054549933 -0.036631733 -0.031464443
-0.027878668 0.0114931315 0.010792599 -0.0045221024 -0.02973175 -0.0034178516 0.0021021494 0.0035980707
0.010968272 -0.04827494 0.0042472016 -0.00744996 -0.048724893 -0.041933324 0.0028620723 -0.048653565
0.014197155 -0.025605287 -0.014549834 -0.022774436 -0.038273245 0.015045848 0.017946556 0.028577281
-0.0064869863 0.01817189 -0.02766257 -0.011175843 -0.041143347 -0.013689719 -0.034737065 0.023737287
-0.007096742 0.0053086127 -0.03395422 -0.03415856 0.0048070876 -0.00021354512 -0.033235542 -0.03232117
0.0051974705 -0.029390588 0.01704462 -0.020499183 -0.03394951 0.01121039 0.019216925 -0.014122591
-0.020887652 -0.041602973 0.03320055 0.0060986346 0.014836382 -0.039076455 0.018825922 0.020222966
0.013361444 0.029501928 0.034962025 -0.029169913 -0.03245157 -0.04356697 -0.024477063 -0.030377932
0.029018145 -0.024480853 0.018013736 0.0009812651 0.032728616 -0.016653402 0.039634153 -0.023699472

sequential_1/conv2d_4/Conv2D_bias f4 [32]
00000000: 36b7 c4bb 9fa7 073c 66e9 813b f919 1bbb
00000010: d641 80bc dc9a d0bb 03bc c4bb 2a30 2cbb
00000020: bffe 2e3b c358 6bbb 98ab c4bb eb07 e4bb
00000030: b19f c4bb 564a f53b 4c04 c5bb 5ccd 3abb
00000040: 9f64 b1ba c0ba c4bb 01f2 06bc 7a8d 72bb
00000050: 3651 e9bb b3c1 09bc 03bf c4bb 22bf c4bb
00000060: 109a 6fbb f3b4 05bc 9bae 04bc 52c1 d3b9
00000070: b1de 36bb 9393 11bb 19a5 b5bb cafe 00bc
-0.0060032858 0.00827971 0.003964591 -0.0023666604 -0.015656393 -0.006366117 -0.006003858 -0.0026273825
0.0026702133 -0.003591106 -0.006001901 -0.0069589517 -0.006000482 0.007485668 -0.006012475 -0.0028503751
-0.0013534016 -0.0060037076 -0.008236409 -0.0037010596 -0.007120277 -0.008407998 -0.0060042157 -0.00600423
-0.0036560334 -0.008160817 -0.00809827 -0.0004038909 -0.002790373 -0.0022213205 -0.005543363 -0.007873246

sequential_1/conv2d_5/Conv2D/ReadVariableOp f4 [64, 3, 3, 32]
00000000: 73b0 2bbd 39ee 14bd 2985 24bd cfdb 46bd
00000010: da7d 9e3d bf9b b6bd 37db 7b3d d3c2 083d
00000020: 9522 773d 2892 3bbb a488 533d 5253 b0bc
00000030: b0a2 993d 6337 05bd 0b7b 1a3d 4439 3a3d
00000040: 1927 d0bc 48d6 d93b 4352 17bd a61b 033c
00000050: f5a0 1fbc 100e f0bc 4b6f a23d 4cc5 8fbd
00000060: 959d 8bbd 8b1c 723d 8884 983d 4818 69bd
00000070: 3ded 8bbd ea04 953d a9b0 e8bc aa2b 7a3d
00000080: 60c9 7bbd f7aa 8abd 7c8b be3b efc6 a43c
00000090: 6133 7bbc 9255 99bd aebc eebc a01c 3a3d
000000a0: ce43 4dbc 2cdb 223c d956 77bd 52d1 833c
000000b0: 6009 ce3c f0e8 efbb 533a c6bc d2cf 293d
000000c0: 12a6 84bd 8212 90bd c525 fbbb dd18 893c
000000d0: 439f d43c 91e0 b9bc 94de 273d f1cc 813d
000000e0: bb22 423d 4ed6 623d 6752 923d a14f fd3b
000000f0: 7e8b 413c 50c3 04bd c66d 093c bc23 a93d
00000100: 2b5a 6c3d f223 863d 1107 7b3d 1002 72bd
00000110: 5d36 aabc 9a89 a5bd 0981 7dbd fd95 22bd
00000120: dfff 8fbb 41b4 ce3b 0d92 063d 767a 1e3d
00000130: 1f06 0fbd fb90 3ebc 2c6d 7d3d 8e88 99bd
00000140: 402b c4bc ad21 6abd 5a40 33bb 7321 06bd
00000150: 3884 2fba 2b9a 8c3d 0ebd 45bc 2d1b abbd
00000160: a357 8fbd e464 683d 6f89 073c e9c6 883d
00000170: d913 613d c1c8 493d dd52 65bb 12d0 813d
00000180: 899a f7bc 55dc 2abd 2d28 86bd 5336 a53d
00000190: 6968 873d dcf5 c9bc 5541 febc 7846 ba3c
000001a0: d049 a83d 168b 1bbc 3c85 953d 36b1 8e3d
000001b0: 0040 5139 05ca 0cbd ddd5 7939 e07f 29bd
000001c0: 3946 5abc bdc5 0f3d 39ee 793d 169b b33d
000001d0: 9554 a53c 0166 55ba a180 27bc e0c3 32bd
000001e0: a43e 2bbd 5c16 69bd 0bac 8739 70cd f638
000001f0: 8aa9 383d 6a4a b73c 0849 493c 7c1c faba
00000200: e34e e53c 9899 39bd 35d0 a33d f2a1 a73c
00000210: a0d5 9d3d 33e7 4c3c 850b 863d b7fd 13bd
00000220: d8b7 9f3d d21f 753c a55d 853b 2eb1 9abd
00000230: 0079 bb3b cc4e 58bd 2776 8e3c c1cc 8a3d
00000240: 34be b13d 0b39 a9bd 5843 3f3d b7bf 573d
00000250: 4b00 803d 0461 373c 9cab 7bbd 8e62 44bd
00000260: cc38 abbc c8de 8cbc bdc9 fb3b 1be7 413d
00000270: ac95 d8bb 545d 903d 3c8e 193d 2089 ac3d
00000280: 3074 3c3d 753a 8b3d a29e 10bd 8637 52bd
00000290: 0e85 3bbd ce57 403d e06f a8bd a102 a03c
000002a0: 51d6 2e3d 589f a33d 57d0 fc3c 8614 cebc
000002b0: aca4 b2bc 82e9 813d 602f 96bd b9f3 d03c
000002c0: bfbf 07bd fa96 85bd fad1 90bd e608 703d
000002d0: 3458 96bd 1724 223b 428a 5bbd d443 9bbd
000002e0: ddb7 3abc 9338 71bd c56b babc 2473 cfbc
000002f0: ac0b 95bc 7952 5cbd f1cf 08bc 96c5 403d
00000300: 22ee 18bb 6b45 d43c a74e c2bb 26ef 39bd
00000310: 7688 15bd 6d7a 1cbd d2c9 453d a787 0ebd
00000320: 1b24 17bb 67d3 a53d 2934 f93c f14c ecbc
00000330: a670 4abb 8122 7fbb 8c58 a7bc 238c 643d
00000340: c00d 89bd 1b09 183d 7486 e93c 834e b0bc
00000350: 882f 8c3d 72fe 923c 2da3 fb3c 833f a7bd
00000360: edc7 5f3d 3836 033c d034 18bd f931 c1bd
00000370: b614 45bd 3636 dabc 44ba 8d3b df2e 07bd
00000380: e5e3 193d d7f6 503c b120 1d3d f58f 16bd
00000390: ad77 1cbd c817 85bd 1e45 fa3c 51ee 053d
000003a0: c5a1 663d c017 833d 2576 a83d 783f a2bd
000003b0: c4ba 583d 9d5f 7ebd 0b13 49bd f307 203d
000003c0: 048c 843d d676 8cbd 4dae aebc 426f c43b
000003d0: 7ba7 c83c ca4d 953d cbaa 59bd a4c2 123d
000003e0: ad62 4fbc 6f36 87bd b03a 5bbd caa5 ebbc
000003f0: e069 fabb d460 4c3d c3fe 553d 6d0d af3d
-0.041916322 -0.03636 -0.040166054 -0.04854947 0.07738848 -0.08916425 0.061488356 0.033388924
0.060335714 -0.0028621051 0.051643983 -0.021524105 0.07501733 -0.032523524 0.037715 0.04546477
-0.025409268 0.006647859 -0.036943685 0.008002197 -0.009742965 -0.02930358 0.07931384 -0.07020053
-0.06817166 0.059109252 0.07447153 -0.056907922 -0.06832359 0.07276328 -0.02840455 0.061076798
-0.061471343 -0.0677089 0.0058149677 0.02011439 -0.015332074 -0.07487024 -0.029142704 0.045437455
-0.012528373 0.00993995 -0.06038556 0.016091023 0.025150955 -0.0073214695 -0.024197733 0.04145796
-0.06476988 -0.0703478 -0.0076644146 0.016735489 0.025954848 -0.02269009 0.04098375 0.063379176
0.047396403 0.055380158 0.07144623 0.00773044 0.011813043 -0.032412827 0.008387988 0.08258769
0.05770318 0.06549825 0.061286036 -0.059084 -0.020777876 -0.08082886 -0.061890636 -0.03969382
-0.004394516 0.006308109 0.03285413 0.038691007 -0.034917947 -0.011631246 0.061871693 -0.07496749
-0.023946404 -0.057161022 -0.002735159 -0.032746743 -0.00066954223 0.06865343 -0.012069 -0.08354793
-0.06999137 0.05673684 0.008272513 0.06678564 0.05495057 0.04926372 -0.0034992017 0.063385144
-0.030225055 -0.04171403 -0.06550632 0.08067002 0.066117115 -0.024653368 -0.031037012 0.02273868
0.082172036 -0.00949361 0.07300803 0.06967394 0.00019955635 -0.03437235 0.00023826161 -0.041381717
-0.013322406 0.035100687 0.061018202 0.08769815 0.020181933 -0.0008140505 -0.010223539 -0.043643832
-0.041807786 -0.05690609 0.00025877389 0.0001176846 0.04508356 0.02237435 0.012285478 -0.0019081975
0.027991718 -0.045312494 0.07998697 0.020462964 0.07706761 0.012506294 0.06545166 -0.036130633
0.07798737 0.0149612 0.004070001 -0.075533256 0.0057212114 -0.05280952 0.017390324 0.06777335
0.086788565 -0.08262833 0.046695083 0.052673068 0.06250056 0.011192564 -0.061442956 -0.04794555
-0.020901106 -0.017196074 0.007683961 0.04733954 -0.006609639 0.07049051 0.03748916 0.08424592
0.046009243 0.06798259 -0.035307534 -0.051322483 -0.045781188 0.046958737 -0.082244635 0.019532504
0.042684857 0.07989377 0.030861063 -0.02515627 -0.021807037 0.06343366 -0.07333255 0.025506841
-0.033141848 -0.06522937 -0.070713 0.058602236 -0.07341042 0.002474075 -0.05359865 -0.075812966
-0.0113963755 -0.058891844 -0.022756467 -0.025323458 -0.018194042 -0.05378959 -0.008350358 0.047063433
-0.0023335298 0.025912007 -0.0059297862 -0.045394085 -0.036507092 -0.03820269 0.048288174 -0.034797337
-0.0023062292 0.080969624 0.03042038 -0.028845282 -0.0030889898 -0.0038930478 -0.020427965 0.055797707
-0.06692076 0.03711806 0.028506495 -0.021521812 0.06845003 0.017943595 0.030717457 -0.08166411
0.054634023 0.008008532 -0.03715974 -0.0943336 -0.048115455 -0.026637178 0.004325183 -0.033003684
0.037570853 0.012754164 0.038361255 -0.036758382 -0.03820007 -0.064986765 0.030550536 0.03269798
0.05630662 0.06401014 0.08225659 -0.07922262 0.05291249 -0.062102903 -0.049090426 0.03907008
0.06472018 -0.06858604 -0.021323347 0.0059947083 0.024493923 0.07290228 -0.053141396 0.035830155
-0.0126578035 -0.06602179 -0.053522766 -0.028765578 -0.007642016 0.04989703 0.052244913 0.08547483

sequential_1/conv2d_5/Conv2D_bias f4 [64]
00000000: e75d b03a 885c 10bb 0000 0000 05fc b5bb
00000010: 9837 babb 14b0 94bb 9252 fabb 85c8 67bb
00000020: 5881 b0bb fa08 b9ba 22c3 b3bb d881 25ba
00000030: f4f4 ec3b 200e 99bb 05fc 1abc bb24 5f3a
00000040: 1d16 e03b 9aab 22ba c9e3 a3bb c124 f23b
00000050: 8bbd bb3b 0000 0000 9eb0 20ba 0000 0000
00000060: 87a2 c4bb 1117 fcbb 60ee fd3a ff82 11bc
00000070: 2bcc 3f3a b116 c6bb 3509 5fbc 94bf c4bb
00000080: 2597 1bbb 47b2 483c 4bb5 84bb d5a3 2ebc
00000090: 46a5 b039 5bca 44ba db3c f6bb 474f c6bb
000000a0: b9b8 c4bb 0292 d53a 20bc 003b 4b36 b638
000000b0: c52b 13bc 7d49 8ebb e236 143c 0000 0000
000000c0: 7cf5 013c a1e7 8aba 4164 04bc 6167 c1bb
000000d0: 2017 b6bb 0000 0000 0c42 983b 4c83 b43b
000000e0: 43ce bfbb 06a6 02bb 08d0 03bc fbc1 43bc
000000f0: fcec 09ba ff4a c4bb 26b9 b2ba e199 4539
0.001345572 -0.002202781 0.0 -0.0055537247 -0.005682897 -0.0045375917 -0.0076392377 -0.0035367322
-0.0053865127 -0.0014117055 -0.005485908 -0.0006313599 0.007231349 -0.0046708733 -0.0094595 0.0008512248
0.0068385736 -0.000620538 -0.0050015193 0.0073896353 0.0057293824 0.0 -0.00061298336 0.0
-0.00600082 -0.0076931794 0.001937341 -0.00888133 0.0007316495 -0.0060451855 -0.013613035 -0.006004283
-0.0023741212 0.012249536 -0.004049932 -0.010659178 0.00033692474 -0.000750696 -0.0075145788 -0.006051931
-0.006003466 0.0016294124 0.0019643381 8.688549e-05 -0.008982603 -0.0043422566 0.009046288 0.0
0.007932063 -0.0010597595 -0.008080543 -0.0059022163 -0.005556956 0.0 0.0046465453 0.005508816
-0.0058534457 -0.0019935383 -0.008045204 -0.011948104 -0.00052614487 -0.0059903855 -0.0013635501 0.00018844708

sequential_1/dense_2/MatMul/ReadVariableOp/transpose f4 [64, 128]
00000000: c99b 34be 264e 8e3d 2ea4 ed3d 82c4 18be
00000010: d0c4 063c e1ce 0abe 7fa3 77bd 0b57 1d3e
00000020: ceb8 42bd 90c1 28be 6eb1 84bd b9fe 37bd
00000030: d44f 3cbd 4993 fdbd 5519 afbd b1fa 183e
00000040: bfc1 7d3d 2da4 18be 9500 1dbe 8a0b a23d
00000050: cce2 20bd be66 a53d 0af8 b13d 5570 e1bd
00000060: 6354 dbbd 9754 ecbc ee78 31be 8790 1b3e
00000070: 1725 46bd 80b3 1d3e 009f 72bc 506b 45bd
00000080: 4813 0d3e 61c8 1dbe f0b9 023c ddc9 d7bd
00000090: 7d52 33be 7eac 0a3d 56fa 68bd 2148 323e
000000a0: bb7c c3bd 072c dbbd 8e74 3abd 4a38 253e
000000b0: 6293 83bd f299 32be 182e 5a3c d653 b5bd
000000c0: 49a6 6cbd 734a 87bd e044 fdbd c47a 0cbe
000000d0: 8826 fcbc c4f0 f1bd 04fb cb3d be13 1ebe
000000e0: 8cce 03bc e146 25be 3163 02be 6bb8 193e
000000f0: f911 153e 146c afbd 8a8c 3dbe 16db c13d
00000100: b3f9 29bd 9e3e 67bc 7a22 c5bd b2ff e73d
00000110: 9ead ac3d 96ee 5fbd 2f64 d3bd 3383 a93d
00000120: b2a5 213e c2af 5fbd 486f 5fbd 1c53 e63c
00000130: 7973 19be d001 9dbc a950 21be 26cc 133d
00000140: ebcc bb3d 5e31 2abe a47c 213e c3ed c4bd
00000150: bc71 1dbe 8e5c a13d 9022 17bc 531c 293e
00000160: dc65 44bd d396 aabd 1f15 233e 5090 39bd
00000170: 46c9 f6bd 67be e83d a091 52bd c0ff 58bc
00000180: 6486 13bd 0fe6 223d 58c7 37bd 9d81 debd
00000190: d069 03bb d710 0a3e b8aa c4bc f053 b63c
000001a0: a734 cbbd 5835 b23c 2aef 1a3e 2910 babd
000001b0: c8fa 91bc 1130 cabd 385c 3f3d 36ea 34be
000001c0: 50a6 ae3c 8aa3 c2bc cc8e 26bd 7fe7 1d3e
000001d0: 809f 0bbd 7a71 8d3d 4211 11bd bb73 4b3b
000001e0: 5a69 e5bd fe1f a63d 75f7 0cbe 3fd1 e9bc
000001f0: f731 aa3d 02e3 0e3e d92e dfbc e40b 033d
00000200: fef3 1f3e 3240 b33d 4c64 1ebe f8cc afbd
00000210: e871 cfbd a910 993c 2c96 81bd 8e37 bbbc
00000220: e89b ce3d 9a7b 0dbe cab2 26be 33e9 ecbc
00000230: 7355 393d 820a 9bbd 799e 0d3d a23d 09be
00000240: b912 ebbd 69ec 2e3b d571 cd3d 16ee 9cbd
00000250: 7079 ffbd 00e7 b13b f2b5 cc3d a69e f13d
00000260: e053 08bd 7c2d bb3d ad22 653c f9f0 a63d
00000270: 4d23 b7bd 4b3a 223e 7894 823d cc6f 023d
00000280: 1bf3 d33d eead 193e 02f1 dc3d 0759 bb3d
00000290: 1e6c e83d 2df6 083e ec1b 233e 9491 19be
000002a0: 987f e4bc 2c8d b1bc 6028 12be 7409 0d3e
000002b0: 5a73 04bd 6ea5 44bd 4fe6 1c3e 2038 4a3d
000002c0: 0b36 3abe 1840 863d 5d53 843c db01 46bd
000002d0: cc98 2c3d b22b c33d 32bb cb3d cf30 33be
000002e0: 006a b33d 535f e03d 74cc 1cbe 7a02 27be
000002f0: f926 6c3d 37cc afbd e7a0 29bd 1f4a 30b9
00000300: e555 91bd 1672 c93d e95e 30be d00e 033e
00000310: 19f8 c73d 6cb9 c63d b3b1 c5bc b2b1 adbd
00000320: 980d e6bd d4fa 99bd 61f6 ecbc 7817 893d
00000330: 4960 7c3d 73cf 003e 1e46 b2bd ef42 0bbe
00000340: e37f d03d 2b6a a33d 6001 243e 25ae 07be
00000350: d2a6 cabd 8ca7 16be 702e 063e da4c 903d
00000360: ec6d 333d b7d0 1ebd 18e0 603c a5df 0f3e
00000370: 3de0 7abb f8ed 0fbe e4e9 123d 804e 813c
00000380: 524c 1bbe 6faf 2b3e 029b 12be b636 5abd
00000390: 8a57 23be d258 9fbd 0a5d bebd 6431 24bd
000003a0: 50df 203c 86d9 a6ba aabe 1a3d 96d4 b9bc
000003b0: 680d 86bd 542c 233e 30b2 a23d 8ce8 8f3d
000003c0: 40f4 4dbd cca3 84bd f5c1 36be 5a0e c53b
000003d0: 73fa 2b3e c664 a23d 7f2b f73d 6c57 063e
000003e0: a032 823d 701d a63d 5a6f d9bd 23ee 8c3c
000003f0: 1017 44bd b573 e3bd 9f5d 0d3e 526a 89bc
-0.17637552 0.069484994 0.116035804 -0.14918712 0.008225635 -0.1355548 -0.060458656 0.15365236
-0.047539525 -0.16480088 -0.064791545 -0.044920657 -0.045974568 -0.12381608 -0.085497536 0.14939381
0.06195235 -0.14906378 -0.15332253 0.07912357 -0.03927879 0.08076237 0.08689888 -0.11007754
-0.10709455 -0.02884893 -0.17331287 0.15191852 -0.048375215 0.15400505 -0.014808416 -0.048198044
0.13776886 -0.1540847 0.007978901 -0.10536549 -0.17511936 0.033855908 -0.056879364 0.17410327
-0.09545275 -0.10701757 -0.04552131 0.16134754 -0.064245954 -0.17441538 0.013316654 -0.08853881
-0.05777577 -0.06605997 -0.123666525 -0.13718706 -0.030780092 -0.118135005 0.09959987 -0.15437219
-0.00804485 -0.1614032 -0.12733151 0.15011756 0.14557637 -0.08565536 -0.18510643 0.094656155
-0.041497897 -0.01411405 -0.096257165 0.11328067 0.08431552 -0.054670893 -0.10321843 0.082769774
0.15785864 -0.054610975 -0.054549485 0.028115802 -0.14985456 -0.019165903 -0.15753426 0.036083363
0.091699444 -0.16620395 0.15770203 -0.09615662 -0.15375417 0.078789815 -0.009224549 0.16514711
-0.047948703 -0.08329549 0.15926026 -0.045303643 -0.120501086 0.11364441 -0.05140841 -0.013244569
-0.036016837 0.039770182 -0.044867843 -0.108645655 -0.0020052083 0.13482986 -0.024007186 0.022256821
-0.09922152 0.021753952 0.15130296 -0.090851136 -0.017819777 -0.09872449 0.046718806 -0.1766747
0.021319538 -0.023759622 -0.040663525 0.1542034 -0.034087658 0.069064096 -0.03541685 0.0031044323
-0.11201735 0.08111571 -0.13766272 -0.02854216 0.08310311 0.13953784 -0.027244018 0.03199376
0.1562042 0.08752479 -0.15467948 -0.085840166 -0.10129148 0.018684702 -0.06327471 -0.022853639
0.100883305 -0.13816682 -0.1627914 -0.028919792 0.045247506 -0.075703636 0.03457496 -0.13402417
-0.114781804 0.0026691204 0.10031477 -0.07662599 -0.12474334 0.0054291487 0.09995641 0.11797838
-0.033283114 0.09139535 0.013985318 0.08151431 -0.0894228 0.1584255 0.063759744 0.0318449
0.10349103 0.15007755 0.10788156 0.0914784 0.11348747 0.13375159 0.1592862 -0.1499694
-0.027892873 -0.021673761 -0.14273214 0.13773137 -0.03233657 -0.04800933 0.15322231 0.04936993
-0.18184678 0.06555194 0.016153032 -0.048341613 0.042137906 0.095298186 0.09947814 -0.17499088
0.08760452 0.10955682 -0.15312368 -0.16309538 0.057654355 -0.08583873 -0.041413214 -0.0001681228
-0.07096461 0.09836213 -0.17223705 0.1279862 0.09764118 0.09703335 -0.024132585 -0.08481158
-0.112330616 -0.07518545 -0.028926076 0.066939294 0.061615262 0.12579136 -0.0870478 -0.13599752
0.101806425 0.07979234 0.1601615 -0.13250025 -0.098951 -0.14712352 0.13103652 0.07045908
0.043806 -0.038773265 0.013725303 0.14050157 -0.003828063 -0.14055622 0.035867587 0.015784502
-0.15165833 0.16766141 -0.14316943 -0.053274833 -0.15951362 -0.07780613 -0.092950895 -0.040086165
0.009818867 -0.0012729622 0.037779488 -0.022684377 -0.06545526 0.15934879 0.07944143 0.07026777
-0.050281763 -0.06476554 -0.17847426 0.0060136737 0.16794758 0.07929377 0.12068843 0.13119286
0.06357312 0.081110835 -0.10616942 0.017203396 -0.047873557 -0.11106054 0.13805245 -0.01677433

sequential_1/dense_2/MatMul_bias f4 [64]
00000000: 3633 59bc 1751 c1bb 9313 0f3c 6877 1abb
00000010: b898 0abc 61da 4b3b bcff 0bbc 0a6c caba
00000020: 4c31 633b 3f87 6d3b 6449 873c cd8a 073c
00000030: 0034 cebb 8e42 f8ba 8444 f5ba a2a9 193c
00000040: b523 30bc 0000 0000 e6b2 b7b9 337f 09bc
00000050: ad39 d03b a303 d53b 8ee2 103c 7a5d 01bc
00000060: b5cd 0f3c 7d44 3abc 428d fdbb 0000 0000
00000070: 30d6 1d3c 010a 4ebc a2de d3ba 95a5 2ebc
00000080: f860 26bc 94d9 32bc e7ce 27bc f00b de39
00000090: 73f5 233c 3c53 7b3c 2dad 54bb 0307 703b
000000a0: 23ec a73c bec2 c1b7 aebb c9bb bd77 0abc
000000b0: a91c 6b3c 8956 1abc 697d 843b ff4d 89bb
000000c0: e82e 16bc dc16 3fbc db78 9fbb f036 fbbb
000000d0: eca4 953c 92ae 61bc bf4c 6c3c 06eb dabb
000000e0: f174 583c 2394 843c cdab 823c a823 cabb
000000f0: ac10 483c 3494 2ebc 371b 0c3c 7d03 773b
-0.013256839 -0.0058995592 0.008732694 -0.0023569707 -0.008459263 0.0031105506 -0.008544859 -0.0015443575
0.0034666834 0.0036243943 0.016514488 0.008272839 -0.00629282 -0.0018940733 -0.0018712436 0.0093788225
-0.010750701 0.0 -0.0003503777 -0.008392143 0.0063545317 0.0065006777 0.008843077 -0.007895822
0.008777072 -0.011368868 -0.0077377865 0.0 0.009633586 -0.012575627 -0.0016164372 -0.010659595
-0.010154955 -0.0109161325 -0.0102422 0.00042352034 0.01000725 0.015339669 -0.0032451854 0.0036625273
0.020498341 -2.3098077e-05 -0.0061564064 -0.008451399 0.014350095 -0.009420046 0.0040432704 -0.004190206
-0.009166457 -0.011663165 -0.004866702 -0.007666461 0.018267117 -0.013774531 0.014422595 -0.006680849
0.013211475 0.016183918 0.015951062 -0.0061688013 0.012211006 -0.010655452 0.00855141 0.0037691288

sequential_1/dense_3/MatMul/ReadVariableOp/transpose f4 [2, 64]
00000000: 614f da3d 2196 d5bd 7251 81be ec1e 0ebe
00000010: bd82 663e 76ed 953e 0d9d 64be 4207 4fbe
00000020: c8dd 773e 6d34 7f3e 3c52 3f3e dc4b e9bb
00000030: f761 89be e0f4 2a3e 00c1 36be 6a40 7f3e
00000040: 4be6 8dbe cedd 39be f07f 5bbe ee2d 07be
00000050: dd25 00be 88d5 743e 2ce2 02be 9c69 8fbe
00000060: cb92 16be eef7 c23d fe5b 20be a88d 193e
00000070: 3ffd 753e d79c 82be 79cb 703e 5a18 8dbe
00000080: f6e5 98be d457 92be dfc1 88bd 4c4f 8a3d
00000090: 821f 5c3e ae5d 99be a547 1a3e 04ae 8d3e
000000a0: 11af 22be 9e7a 0d3e a023 17bc ec9d 88be
000000b0: a978 0c3e 16a9 2bbe a294 a2bd 66eb 67be
000000c0: a5a5 843e 491a 613e e404 36be da6b 4a3d
000000d0: 41ea 34be 9b1f 1a3e 5a8f 62bd a473 80be
000000e0: 9086 0c3e dda5 c9bd b1b0 473e c29e 50be
000000f0: 09b7 983e cc16 55be 4a1e a7bd 123b 643e
00000100: 219d 8cbe ba57 cebd 2782 efbd 59e7 8f3e
00000110: b1c8 36be f9d5 71bd e51a 833e 9b71 24bd
00000120: c574 a8bd ea0c 8dbe e52d 45be f51b edbd
00000130: e9ce cc3d 8bdd 51be 0171 4b3e 8b12 43be
00000140: 058e 5d3d 2080 803e 0772 ba3d 737b 0cbe
00000150: b722 3ebe 9492 13be d2da 53bd 8d43 cabd
00000160: 373c fdbd b21e f73d a590 883e 54a0 99be
00000170: 303e 00bb c704 cf3d d71d 75be 7537 893e
00000180: 8b3f 773e caba 823e bce8 813d ca81 29be
00000190: f13a 38be fdd8 94be 00e4 763d 14a2 99be
000001a0: e69c 94be fe0a ebbd 545e 38be b52d 8e3e
000001b0: 467a 0fbe 372b 9f3d 7306 98be f38a 443e
000001c0: 1136 823e 179c 61be 071b 553e 7a51 133b
000001d0: 0f1e 30be 9abe 223e 9bbb dcbd 1be5 af3d
000001e0: d73c e3bd fc0d 38be 9766 e2bd ef34 393e
000001f0: c3b8 b7bd 6d4a 0c3e 2c4c 73bd 6c9f fdbd
0.106596716 -0.104290254 -0.2525745 -0.13878983 0.2251081 0.2928273 -0.22325535 -0.20217612
0.24205697 0.24922343 0.18683714 -0.007119639 -0.26832554 0.16694975 -0.17847061 0.24926916
-0.27714762 -0.18151018 -0.21435523 -0.13201115 -0.12514444 0.2390958 -0.1278159 -0.2801026
-0.14704435 0.09519945 -0.15660092 0.14995444 0.24022387 -0.25510284 0.23515119 -0.2755764
-0.29862946 -0.28582633 -0.06677603 0.06753406 0.21496394 -0.29954284 0.15066393 0.27671826
-0.15887095 0.13816306 -0.009224802 -0.26682985 0.13717903 -0.1676372 -0.07938506 -0.22648391
0.25907627 0.21982683 -0.17775303 0.04941926 -0.17667486 0.15051119 -0.055312492 -0.25088227
0.13723207 -0.09846089 0.19500996 -0.20373061 0.29827145 -0.20809478 -0.08160074 0.22288159
-0.2746363 -0.10075326 -0.116947465 0.28106192 -0.17849995 -0.05904195 0.25606456 -0.040147405
-0.08225397 -0.27548915 -0.19255789 -0.11577598 0.100004025 -0.20494668 0.19867326 -0.19050042
0.05409052 0.25097752 0.0910378 -0.13718967 -0.1856793 -0.14411384 -0.051722355 -0.098761655
-0.12365001 0.120664015 0.26672855 -0.30005133 -0.0019568317 0.10108333 -0.23937164 0.26800123
0.24145333 0.25533134 0.06343219 -0.16553417 -0.17991234 -0.290718 0.06027603 -0.30006468
-0.29025954 -0.11476706 -0.18004733 0.27769247 -0.14011487 0.077719145 -0.2969242 0.1919363
0.25431874 -0.220322 0.20811091 0.0022478984 -0.17198966 0.15893021 -0.107779704 0.0858862
-0.11095589 -0.17974085 -0.11054724 0.18086599 -0.089707874 0.13700266 -0.059398815 -0.12383923

sequential_1/dense_3/MatMul_bias f4 [2]
00000000: 12fd cc3b b6b2 91bc
0.0062557543 -0.017785411
