app/src/main/assets/model.tflite (tflite, 373432 bytes, 10 tensors)

sequential_1/conv2d_3/Conv2D/ReadVariableOp f4 [32, 11, 11, 4]
00000000: 7b11 aabb 0b72 a9bb 075e f83c 1add cabc
00000010: c69e 093b 7226 883c f27b 24bd c430 003d
00000020: 2c13 c63c 1c9b fdbc 68c2 dbbc 0ebf ddbc
00000030: c9fb 983c c2d2 b83b 04b9 20bd b881 27bc
00000040: 3fae 0ebd a39e dfbc 5e6b 833c 906d 4e3c
00000050: cc51 27bd 2cfe 06bc bc9f 2c3c 5a26 df3c
00000060: a314 b13c 4c07 26bc 8a07 04bc ec58 933c
00000070: e341 1cbd 3e28 95bc 9cdc 90bc 2a48 233d
00000080: 75fe 17bd d0a1 afba 8b2e 95bc 6a0d 06bd
00000090: 9ec9 c13c cc10 a23b 07d9 003c 8118 f4bb
000000a0: 20fa 20bb a30a 10bd 9cc0 1ebd 0e3e d5bc
000000b0: a149 f3bc aa00 273c e714 203c 51c0 003d
000000c0: f9c2 01bd e86b 3b3c e132 b3bc 0d94 7cbc
000000d0: 85c8 08bc 57cd c4bc bc4c 703c a38b 0c3d
000000e0: 9f28 b63c b2d5 0ebd 328e 353c d476 bc3c
000000f0: cc33 113c 15eb e6bc fd4c 843c 82ea 77bc
00000100: 8f85 923b ab47 e4bc fdc1 843c 05ec 6a3c
00000110: 83c5 f43a d959 773c 7a73 cfba f826 b13c
00000120: bf80 2fbd 1773 413a 2856 0dbd 2820 d7bb
00000130: 3b78 10bd 09a7 b3bc f305 12bd 08b1 91bc
00000140: aeb8 873b 1112 6eba 5056 98b9 fb62 9f3c
00000150: b3c5 dcbb 642a 40bd 963d 8b3c 64fb 063d
00000160: d737 02bd fd3e 13bd b58c df3c 6309 5dbc
00000170: 8e54 07bc 4229 983b 70df 0dbb d90e 423c
00000180: 0aad f8bc c027 3dbc 3d56 0cbd d9d9 743b
00000190: e3ab 3cbc e660 a9bc 3639 bc3c ee55 1d3d
000001a0: c467 833c 99a9 debc 91b0 fa3c c6f0 eabc
000001b0: 5c5d 1abd 269f d3bb 3a47 60bb 82ad e6bc
000001c0: 8d4a d4bb 112a 903c f512 703c 420c 4e3c
000001d0: 80f4 363c 79f9 de3a a11e f1bb bd03 edbc
000001e0: aba3 893b 52ba d4bc 19b2 da3c 7bb0 0f3d
000001f0: 34c6 dbbc 44b5 eb3b 27c2 0a3c 47bb 613c
00000200: 036d 513c c9c8 d73c db8b 953a 9403 f53c
00000210: 4c07 e139 a806 8d3c e081 50bc af2e 283c
00000220: 3639 ca3a d341 2a3a d211 12bd cd25 153a
00000230: e4de 2abd 046d 50b9 9817 e5bc a1e3 92bc
00000240: fc2f d1bb 81fb 96b8 66f7 0bbd 9526 bc3c
00000250: 39b7 2cbd 3a2b dbbc 612f 2abd a2c0 33bc
00000260: b7aa df3c 67e4 28bd 5a46 2dbd 2dc9 03bd
00000270: 34bc ec3b 58db 0cbd a1de eb3b 055a 0f3d
00000280: f84d 06bd 1012 febc 4ca0 8abc e1ea c63c
00000290: 2e3c eb3b 2a4a 7e3c 0142 1bbc b273 093d
000002a0: e712 113c 0e0f 06bd 91c5 f03c 1ca4 b7bc
000002b0: b2ff 643c 247e 99bc 1374 28bb f64d cfbc
000002c0: 2fc4 54bb 0951 f2ba 55b6 4fbb 72ae ad3a
000002d0: 9faf 9e3c a518 ed3c 7c60 f73c b662 013d
000002e0: f225 debc 6852 d23c 5a5c dc3c 819c b13c
000002f0: 2b44 31bd 0e60 0c3b 5b2d 853c 5a97 003d
00000300: a755 1fbb 8f77 3abc d9e6 22bd 7e1c eabc
00000310: 9e0d 183c 4e7c 33bd 6b31 bd3c d075 4b3c
00000320: bd8b 11bd a8d0 e93b 7ce8 3c3c 2a94 70bc
00000330: 2774 fabc 5635 d9bc a453 553c 7ffe 273d
00000340: 470b 9a39 002f a83c af0f e8bb 5975 62bc
00000350: 6c84 1ebd f508 ecbc e4e8 f93c fb13 e3bb
00000360: 6b5d fa3a 7224 823b 2ac4 2b3c 4466 5d3c
00000370: 2f2b e9bb f6c5 adbc ca1f 08bd fa97 063d
00000380: 814e dfbc 8849 f3bc 6113 383c 0b22 223d
00000390: ac2b cebc 0d87 adbc f8a2 a4bc 7b3b c83c
000003a0: 3bda de3c 7dff 22bd 5f37 9d3c 7836 07bb
000003b0: 3505 1ebd 840f 903c 5434 a83c e95a a43c
000003c0: c905 bbbc 52b4 85bc ead4 f8bc f31b e53c
000003d0: 438b bf3b e07b 8f3c ab82 17bd bdf5 ebbb
000003e0: 60a3 a4ba 4854 c53c 5d03 cfbc 0bc9 a7ba
000003f0: ec53 2a3c 6816 2f3c fb99 9d3c 4d7c 9dbc
-0.005190072 -0.0051710657 0.030318273 -0.024763633 0.0020999177 0.016619895 -0.040157266 0.031296507
0.024179064 -0.030957751 -0.026826099 -0.027068641 0.018674748 0.0056403587 -0.039238945 -0.010223798
-0.034834143 -0.027297324 0.016042408 0.012599364 -0.040849492 -0.00823931 0.0105361305 0.027239967
0.021616286 -0.010133576 -0.008058438 0.017986737 -0.038148772 -0.018207666 -0.01768332 0.039863743
-0.037107904 -0.0013399664 -0.01821067 -0.032727636 0.023655709 0.00494585 0.007864243 -0.00744921
-0.0024563149 -0.035166394 -0.038757905 -0.026030567 -0.029698195 0.010193029 0.0097706085 0.031433407
-0.03168008 0.011439301 -0.021874847 -0.015416157 -0.008348589 -0.024023695 0.014666732 0.034312855
0.022236167 -0.034871764 0.011081265 0.02300588 0.008862447 -0.028188268 0.016149992 -0.015131595
0.004471488 -0.027866205 0.016205782 0.014338498 0.0018674586 0.015097105 -0.0015827261 0.021625027
-0.04284739 0.00073795154 -0.034505993 -0.0065651126 -0.03527091 -0.021930235 -0.035650205 -0.01778461
0.0041418886 -0.00090816716 -0.00029056007 0.019456377 -0.006737435 -0.046915427 0.01699714 0.03295459
-0.031791534 -0.035948742 0.027288774 -0.0134910075 -0.0082599055 0.00464359 -0.0021648072 0.01184436
-0.030355949 -0.011545122 -0.03426193 0.0037361293 -0.01151559 -0.020676088 0.022976499 0.038412027
0.01604069 -0.02718048 0.030601772 -0.028679263 -0.03768669 -0.006458181 -0.0034222142 -0.028158907
-0.0064786137 0.017598184 0.014652957 0.012576165 0.011166692 0.0017011605 -0.0073583876 -0.028932447
0.004200419 -0.02596775 0.026696252 0.035080414 -0.026827909 0.0071932394 0.008469141 0.013777561
0.012782338 0.026340859 0.0011409478 0.029908933 0.0004292078 0.017215088 -0.012726277 0.0102650365
0.0015428427 0.0006494794 -0.035661526 0.00056895317 -0.04171647 -0.00019877037 -0.027965352 -0.017930808
-0.006383894 -7.1994036e-05 -0.034171484 0.022967616 -0.042166922 -0.02675401 -0.04154909 -0.01097122
0.027303083 -0.041233446 -0.04230342 -0.032174278 0.007224584 -0.03438887 0.0071981703 0.03499796
-0.0327892 -0.031014472 -0.016922139 0.02428192 0.007178805 0.015520612 -0.009476186 0.0335576
0.008854604 -0.0327292 0.029391082 -0.02241712 0.013976978 -0.018736906 -0.0025703951 -0.02530573
-0.0032465567 -0.0018487285 -0.0031694372 0.0013250841 0.019370852 0.028942415 0.030197375 0.03158828
-0.027117703 0.02567406 0.026899505 0.021681072 -0.0432779 0.0021419558 0.016256979 0.03139434
-0.0024312527 -0.011381044 -0.039770935 -0.02857804 0.00928059 -0.043819718 0.023094853 0.012418225
-0.035533655 0.0071354695 0.011530038 -0.014683763 -0.030572964 -0.02651469 0.01302043 0.04101419
0.0002938157 0.020530224 -0.0070819478 -0.013821923 -0.038700506 -0.028812865 0.030506559 -0.006929872
0.0019101327 0.00397163 0.010483781 0.013513152 -0.0071157436 -0.02121256 -0.03323344 0.03285978
-0.027259113 -0.029698148 0.011235089 0.039583247 -0.025167309 -0.021182561 -0.02009724 0.024442425
0.02720367 -0.039794434 0.019191442 -0.002063183 -0.038579185 0.017585523 0.020532764 0.02006288
-0.022829907 -0.016321335 -0.030374963 0.027967429 0.0058454587 0.017515123 -0.03698985 -0.007200925
-0.0012560897 0.02408804 -0.025270158 -0.0012801004 0.010395985 0.010686494 0.019238463 -0.01922431

sequential_1/conv2d_3/Conv2D_bias f4 [32]
00000000: 234d 75bb 2664 10bc 057a 3d3c 85b1 293c
00000010: 4c10 85bb e186 ea3a c1e6 c5bb e67f aa3c
00000020: 1e44 ad3c 4bbc c23b 0ce8 573c 609d 2e3c
00000030: 5ce1 48bb 0527 133c f727 dbbb 322a 94ba
00000040: 95b8 70bb 70c6 26bc 0f8d e13a 44b5 673c
00000050: 2a77 fbba a07a 2cbb 0604 45bb be54 933c
00000060: 5a19 7dbc bdb5 25bc bcba 04bc 4f1e 043c
00000070: 6d02 cf3c fd95 69bc ef3c 5cbb a839 f6bb
-0.003743001 -0.00881294 0.011564736 0.010357265 -0.0040607806 0.001789298 -0.006039471 0.02081294
0.021150645 0.0059428564 0.013177883 0.010657638 -0.0030651903 0.008981471 -0.006688114 -0.0011304079
-0.0036731113 -0.010179147 0.0017208176 0.014142338 -0.0019185294 -0.0026318207 -0.0030062213 0.017984744
-0.015447939 -0.010114131 -0.008101162 0.008063867 0.025269711 -0.014256951 -0.0033605655 -0.0075141974

sequential_1/conv2d_4/Conv2D/ReadVariableOp f4 [32, 7, 7, 32]
00000000: 7173 a4bc 03c7 b6bc d7dc 19bd 01ee a8bc
00000010: 3294 11bd 48ae 193d 62e9 92bc 8fdf 3e3c
00000020: 1b38 5abd f3b8 f1bc 4390 da3a 7555 e4bb
00000030: 5214 5ebc 0f29 883c f54e ccbc 0ad6 dcbc
00000040: d165 7ebc 6194 bcbc 6013 32bd 41e1 06bd
00000050: 178e 3c3d d0c0 143c 7838 e83c de0a 16bd
00000060: af37 16bd 9f15 fb3c 925d e0bc 6801 96bc
00000070: 0876 b5bc ee1b 39bd 498a 9cbc f799 df3c
00000080: 193d d13b 6fde 68bc e79a b5bb d640 e8bc
00000090: 9a3e aa3c 3ac2 dd3c 3077 39bd 88b0 3ebd
000000a0: ae93 0dbd 82c3 b73c e11e d5bc 4479 cd3c
000000b0: 07fa 3abd 9e4d 5fbc 5198 8bbb 1486 b53c
000000c0: d42e 13bd 285e cd3c 6149 2e3c 62d2 863b
000000d0: adc2 103d 0ec8 25bd 1ef5 6d3c bd70 02bc
000000e0: f966 dc3c 9444 2b3d 238d 6abb b03d 16bd
000000f0: acc4 c7bc c6f9 9e3b d0ea 123d 640a 38bc
00000100: e5b5 adbc 0104 7dbb c58a 10bc ce89 0ebd
00000110: b5d7 fe3c 3fe6 febc 17ae 89bc 7b9c 583c
00000120: cb90 c0bb 8595 55bd afa8 66bc 65af 943c
00000130: b624 1fbd c2be 9e3c c496 4eba eb86 9abc
00000140: e9cc efbb 0815 bf3c 766a 063d ac50 5dbd
00000150: 3860 aa3c 6524 13bd 4dd7 103d 9d38 32bd
00000160: 7822 f43c 36ba 233d 4ec0 d9bc f3c2 533c
00000170: 625c 8bbb fdf8 003d b7c2 b53c 1b35 713c
00000180: 2c98 0f3d 3e39 1b3d f3dc 16bd 362a cbbb
00000190: 7d48 213c bcc3 c93c 2a93 42bd dde0 22bd
000001a0: e60e c4bc 6941 3bbc c2f4 9e3c 3c9f 2e3d
000001b0: a02e 36bd b71a cbbc 3fc0 1f3d b6af e8bc
000001c0: 44a8 193c e2dd fabc 88e0 9bbc 92f2 77bd
000001d0: 6861 993c 70fc 2d3c d69b ee3b a69c bb3c
000001e0: f674 5bba ab83 203d 48d3 9fbc c010 1b3c
000001f0: 4561 dcbb 8720 0bbd dc57 24bd 8d37 bdbc
00000200: b188 193d 3032 f53c 4e0f 88bc 797a 0d3c
00000210: 8332 6fbc 7a1f b2bc e935 13bd b4d8 1bbd
00000220: 091c 3cbc 4e2a a93c 6687 04bd 3951 11bd
00000230: b151 8a3c 6a09 17bd 25d7 ec3c ac89 1abd
00000240: f2f8 a3bb 52b8 efbc 5ade 40bc 94d7 97bc
00000250: 467a 0e3d 2d96 96bc dfe4 5e3c 0848 8ebb
00000260: f649 20bd 20bd 663c c94d 0f3d f143 c8bc
00000270: afba d53b 32ea 9cb9 4961 223d 91ce f3bb
00000280: c9e1 11bd 474f fabc 7572 41bc c2b0 5ebc
00000290: 9cc5 fa3c 8cd7 f83c f1a8 d03c 7458 02bd
000002a0: 0491 07bd 5af5 dcbc d2e1 2e3d c452 9dbb
000002b0: d2ee 383d 7806 fcba ddbc 193d 61da 3a3d
000002c0: 17d4 e33b 2cf7 ea3c 8269 18bd c425 9b3b
000002d0: cfaf 223d 1550 8d3c aa0f 113d 5204 5c3c
000002e0: 2c9e cbbb 924c a03c ca61 a1bc c644 52bc
000002f0: a589 85bb f935 1dbd f0a7 3bbc 490b 3339
00000300: 1a37 0abc 5e9e 8b3c d646 bdbc b082 89bc
00000310: 5e3b 193c e360 4dbd fe0a e8bc f8e6 52bc
00000320: d9ed 5cbb 2030 19bd bb1c ba3a a22e c33c
00000330: 604e 4b3c 7142 143d f8cd f1bc 0128 d9bc
00000340: fd45 1a3d 20f1 1d3d cbfb 80bc a25b b4bc
00000350: 6916 08bd 7d18 16bd 57ed 6f3c 624c 97bb
00000360: 4a1f 2ebd 2a9b c0bc 30ef 13bd 72ee 3bbd
00000370: 08bd 2e3d 9d1f 7abc b412 c1bc 27f7 263d
00000380: 0660 03bd e807 dfbc 07fd 2ebd 098c 043d
00000390: afb9 1d3c 52af eb3b 60c2 833c 10a3 12bd
000003a0: 6da3 06bd d087 5dbb 9494 ffbc 3f33 b53b
000003b0: 323d 26bd 4ce6 fd3c 0d2a 293d 0c25 95bc
000003c0: 3845 42bc 5c07 0dbb 21c8 fcbc fee0 8cbd
000003d0: 0082 ce3b 5f9f 0d3d 4515 86bb 2527 16bc
000003e0: 60b3 923c 5b64 463d b471 c1bc 4993 18bd
000003f0: 65bb c13c 3483 42bd f8c5 fdbb 845b 403d
-0.020074578 -0.022311693 -0.037564125 -0.020621302 -0.03554172 0.037519723 -0.017933551 0.01164998
-0.053276163 -0.029507136 0.0016675073 -0.006968195 -0.013554649 0.01662114 -0.024939993 -0.02695753
-0.015527205 -0.023019971 -0.04347551 -0.032929663 0.046033945 0.009079173 0.028347239 -0.036631458
-0.036674198 0.030649958 -0.027388368 -0.018311217 -0.022151008 -0.04519265 -0.019108908 0.027295096
0.0063854572 -0.014213189 -0.0055421474 -0.028351229 0.020781804 0.027070154 -0.04527968 -0.046555072
-0.034564666 0.022432093 -0.0260157 0.025082238 -0.0456486 -0.013629345 -0.004260101 0.02215866
-0.03593333 0.025069311 0.010637612 0.004114435 0.035341907 -0.04047399 0.0145237725 -0.007961449
0.02690457 0.041813448 -0.003578969 -0.036679924 -0.024385773 0.0048515527 0.035868466 -0.011232946
-0.021204898 -0.0038607123 -0.008822148 -0.03479939 0.031108717 -0.03111565 -0.016806645 0.013220902
-0.0058766357 -0.052144546 -0.014078303 0.01815004 -0.03885337 0.01937807 -0.0007880742 -0.018863162
-0.0073181284 0.023325458 0.032816373 -0.054032013 0.020797834 -0.03592338 0.035361577 -0.043511022
0.029801592 0.039972506 -0.026580956 0.0129248975 -0.0042529562 0.031487454 0.022187574 0.014722134
0.03505723 0.037896387 -0.036831807 -0.0062001003 0.009843943 0.024629466 -0.047503628 -0.039765228
-0.023932885 -0.011429169 0.019403819 0.042632326 -0.04447806 -0.024793012 0.0390017 -0.028404098
0.009378497 -0.03062338 -0.019027963 -0.060534067 0.018723205 0.010619268 0.0072817607 0.022901844
-0.00083716155 0.03918807 -0.019509926 0.009464443 -0.0067254626 -0.033966567 -0.04012285 -0.023097778
0.037483875 0.029931158 -0.01660886 0.008635157 -0.014599445 -0.021743525 -0.035940085 -0.03804846
-0.0114812935 0.020650055 -0.03235569 -0.03547785 0.016884657 -0.036874212 0.028911183 -0.03772895
-0.005004042 -0.029262695 -0.011771763 -0.018535413 0.034784578 -0.018382156 0.013604372 -0.004342083
-0.039133035 0.014083177 0.03498629 -0.02444646 0.0065224986 -0.00029929128 0.03964356 -0.007440396
-0.035615716 -0.03055538 -0.011807074 -0.013591947 0.030611806 0.030376218 0.025471183 -0.031822637
-0.033097282 -0.026972461 0.042695828 -0.004801126 0.04514963 -0.0019228002 0.03753363 0.04561842
0.0069527733 0.028682314 -0.037209995 0.0047347266 0.039718445 0.0172501 0.03541533 0.013428764
-0.006213924 0.019567762 -0.01969995 -0.01283378 -0.0040752464 -0.03838155 -0.011453614 0.00017074974
-0.008435989 0.017043289 -0.023105066 -0.01678595 0.009352533 -0.050141227 -0.028325554 -0.01287245
-0.0033711104 -0.03739941 0.0014199236 0.023825947 0.012408823 0.036196176 -0.029517159 -0.026508333
0.037664402 0.038560033 -0.015745064 -0.02201635 -0.033224497 -0.036644448 0.014643989 -0.00461726
-0.04251031 -0.023511488 -0.03611678 -0.045881696 0.042660743 -0.015266326 -0.023568489 0.040763047
-0.032073997 -0.02722545 -0.042721774 0.03236011 0.00962679 0.0071925307 0.016083896 -0.03580004
-0.0328707 -0.0033802874 -0.031198777 0.0055297907 -0.040585704 0.030993603 0.04129987 -0.018206142
-0.011857323 -0.002151928 -0.030857148 -0.06878851 0.0063021183 0.034575816 -0.004091891 -0.009164606
0.017907798 0.04843555 -0.023613788 -0.037249837 0.023648927 -0.047488406 -0.007744547 0.046962276

sequential_1/conv2d_4/Conv2D_bias f4 [32]
00000000: e50a 24b9 da9c 88ba e579 453a 945e 9fbb
00000010: 0be7 b03b ca41 c4bb afb7 c23b aa25 c2bb
00000020: 2f08 d23b dc8c 2bbb 7f5c 103c a3ba ebbb
00000030: 25c4 563a c83f b33b 2e3c eabb e4e1 8bb9
00000040: 5506 cdbb bd48 d4ba e230 b33b 7f44 c4bb
00000050: 9dde 17ba 9886 67bb 68c9 01ba 4832 07bc
00000060: d8fb c03b 359c ce3b 4842 cebb abaa bf3a
00000070: 3772 a53a fd39 08bc 678f 013b 3822 10ba
-0.00015644317 -0.0010422722 0.00075331173 -0.0048635695 0.005398636 -0.005989288 0.005942307 -0.0059249
0.006409667 -0.0026176488 0.008811115 -0.0071938797 0.000819268 0.00547025 -0.0071482873 -0.00026680448
-0.0062568584 -0.0016195994 0.005468474 -0.0059896107 -0.0005793365 -0.0035328027 -0.00049509713 -0.008251734
0.005889397 0.0063052424 -0.0062945224 0.0014623007 0.001262254 -0.008314607 0.0019769312 -0.0005498263

sequential_1/conv2d_5/Conv2D/ReadVariableOp f4 [64, 3, 3, 32]
00000000: d81d 803d 1044 323d 8a27 563c 4a97 513c
00000010: 09e9 9cbd 8231 4e3d 00e1 86bd ce69 2b3d
00000020: d6a3 813d 6cff 033d 0570 54bd 6bd1 0abd
00000030: ea89 0e3d 07e3 1f3d 1a44 b7bc 4c64 92bd
00000040: 1a3d 1abd d09a a5bd 345e 8c3d db9c 863d
00000050: 536b 8b3d 0e27 b0bc 049f 813d e0cd f03c
00000060: ec58 71bc 9111 7fbc 029a 493d 8afc dcba
00000070: fd61 613c b137 50bd 4fab 1e3b 1934 84bd
00000080: 31ae 2bbd 72f1 0e3d eafd 91bc b5fc 8b3d
00000090: 7e3d 5dbd 9217 33bd 722c 363d 83d4 14bd
000000a0: fc9d 06bd 1b70 983c c5c7 7d3c 6fef 2dbd
000000b0: a12c 9fbd 0d15 a0bd a94b 55bd d4aa 4fbd
000000c0: 6346 73bc 009f 70bd a2b2 b0bd 9acb afbd
000000d0: 9e98 f33b a505 523d 5c78 38bc 9698 043d
000000e0: f606 8fbd 1496 8cbd bdef ea3c ef1c 493d
000000f0: 17bf 72bb 92c5 49bd a74f aebd cd25 a83d
00000100: 0b58 053d 194b 093d fb67 773d 845e f93c
00000110: a5d0 e33c 630d 8e3d 925d 563d 199d f73a
00000120: 2243 1abd d6e8 69bd 0a38 a5bd 0feb 71bd
00000130: 835b 273d 4234 3f3d cdc5 c83b 53da ad3b
00000140: 8e5f 703d eac4 b1bc e481 4b3d e9c2 42bd
00000150: d417 423d fcdc 753c d214 283d 60a8 7bbd
00000160: dd34 9abd 2725 593d 4256 f7bc ec1a 533d
00000170: 44ad 99bd 08e9 9fbd d333 8dbd 6971 a23c
00000180: 3595 e3bc 44e1 673d e911 85bd bd2a 00bd
00000190: 6bec b8bd ac60 cb3c f93b a8bd 09fd 5f3d
000001a0: c9ff 29bd 3f5a 313d d818 6fbd 4125 c83b
000001b0: 6753 2abd cfcd 8ebd 4acc d43c a95e a63c
000001c0: 1ac0 173d 8a24 b0ba 5ba8 32bd deea 443b
000001d0: 13a5 5e3d 1575 923c 2097 4ebd e29d 2f3d
000001e0: 0341 8ebc d178 673c 3727 b5bc 8213 83bd
000001f0: af7f 81bd cfa5 bb3c b41d 053b 10e1 49bc
00000200: 8ff4 91bd 5b66 13bd e3e5 873d 687d 443d
00000210: 4e01 af3d fd1e 88bd 0101 283d 46ca 9ebd
00000220: 2669 5e3d b94b 9b3d 80cb 67bd 1fe0 1abd
00000230: 0283 95bc 5450 863d 7caf 82bb 5a64 81bb
00000240: 7209 ac3c 3a02 2a3d 5ae5 773d 4087 373d
00000250: 972f c5bc 4e42 d73c 1186 6abb e535 933d
00000260: 3530 a4bd f424 333d a932 953d 917f 08bd
00000270: 6777 76bc 7354 893d e90a 003c ac33 543d
00000280: 8167 a7bd cde5 6d3d 4623 cbbc 82dd 3a3c
00000290: 8fba 93bd 2629 143d bde1 8c3d 5e54 b5bd
000002a0: 04c1 dabc c876 e2bc b027 503d fd87 23bc
000002b0: 094f 2d3b 6c89 8f3d a350 213d f591 843d
000002c0: 554d 163d 9576 193d 5cfc 4dbd fb38 3a3d
000002d0: b44a 7d3c 5ca9 f3bc f313 9fbd e0a2 e23c
000002e0: 6c85 8a3c fcf9 8fbd 7273 28bb 85a5 203d
000002f0: 1e0f 033d d387 b9bd 7c7a 25bd ddd2 ddbc
00000300: f7eb 8bbd b1ea 63bc 55cf 3bbd 2054 07bd
00000310: bb91 0bbd 03d5 89bd 5516 88bd b2d7 0739
00000320: b2de 1bbd ae5d 7bbd 0c34 17bd 2010 933c
00000330: 4f6b 3c3d b351 81bd 9f39 6cbd 06c1 8fbc
00000340: c5f0 16bc 2ee0 04bd e124 943d 24ed 61bc
00000350: 34ab 9fbd 12e3 933c 0c93 82bd fae3 393c
00000360: d133 b4bd 89d8 6c3c fcf5 62bd 7356 5fbd
00000370: 6379 d3bb 89c3 a1bc f793 193c 4673 9d3d
00000380: f7fb 4c3d 35eb 8abd 793a 443d e12a 83bc
00000390: 2fc6 c3bb 38d6 a1bc f2ef c4bc f7cc 8a3d
000003a0: 3af6 d03c a8a5 a7bd 1845 e73a 6c6a ea3b
000003b0: e009 5ebc 5305 df3a 65ab ee3a 955d 7f3d
000003c0: 5eeb 73bd 829e 97bc 8d65 afbd cb92 dd3a
000003d0: fb36 8f3b c546 3abc ab07 a3bd 9897 0bbc
000003e0: a8f9 82bd 5032 d83c 7c90 143c 5a0d 8c3d
000003f0: 1c6d 923c af8b 683d dc42 28bd 4791 b63d
0.06255692 0.04352194 0.01307095 0.012792418 -0.076616354 0.050340183 -0.06585884 0.04184895
0.06330077 0.03222601 -0.051864643 -0.033891123 0.034799494 0.03903487 -0.02237134 -0.07148036
-0.037655927 -0.08086169 0.06853905 0.065728866 0.0680758 -0.021502998 0.06329158 0.029395044
-0.014730673 -0.015568153 0.04921914 -0.001685993 0.013756272 -0.05083436 0.0024210995 -0.06455249
-0.04191417 0.03489823 -0.017821271 0.068353094 -0.05401372 -0.04372365 0.04447598 -0.03633548
-0.03286551 0.018608144 0.015489523 -0.04246467 -0.07772184 -0.07816515 -0.05207411 -0.050700024
-0.0148483245 -0.058745384 -0.086278215 -0.08583756 0.007433965 0.051274914 -0.011259165 0.03237208
-0.069837496 -0.06864563 0.02867877 0.04909986 -0.0037040168 -0.049260683 -0.08511286 0.08210335
0.032554667 0.033518884 0.060401898 0.030440576 0.02780945 0.06936147 0.05233533 0.0018891423
-0.03766168 -0.057106815 -0.08067329 -0.05906206 0.040858757 0.046680696 0.0061270953 0.0053055673
0.058684878 -0.021700341 0.04968442 -0.047549162 0.047386006 0.0150063 0.04103548 -0.06143987
-0.07529614 0.053013947 -0.030192498 0.051539347 -0.07503751 -0.07808119 -0.0689465 0.019829469
-0.027781108 0.056611314 -0.06497557 -0.03129076 -0.09029468 0.02482637 -0.08214564 0.054684673
-0.0415037 0.043298956 -0.058373302 0.0061079566 -0.041583445 -0.069728486 0.025976319 0.02030881
0.037048437 -0.0013438624 -0.043617588 0.0030047218 0.054356646 0.017878095 -0.050437093 0.04287518
-0.017364984 0.014127926 -0.022113426 -0.06400205 -0.06323182 0.022906212 0.0020311894 -0.0123217255
-0.07126724 -0.035986286 0.06635644 0.04797116 0.08545171 -0.066465355 0.041016582 -0.07753424
0.054299496 0.07582802 -0.056590557 -0.037811395 -0.018250946 0.0655829 -0.0039882045 -0.0039487304
0.021000598 0.04150603 0.06052146 0.04480672 -0.024070544 0.026276734 -0.0035785476 0.07188014
-0.08017007 0.043736413 0.07285053 -0.03332478 -0.015043116 0.067055605 0.007815101 0.05180709
-0.08174039 0.058080483 -0.024797093 0.011405351 -0.072133176 0.036172055 0.06878994 -0.088539824
-0.026703365 -0.02764453 0.0508191 -0.009981153 0.0026444814 0.07008633 0.03938354 0.064731516
0.036694843 0.037466604 -0.050289497 0.045464497 0.015459705 -0.029743843 -0.07767477 0.027665555
0.016909324 -0.070301026 -0.0025703576 0.03922035 0.03199684 -0.090591095 -0.040400013 -0.027078087
-0.06832116 -0.013910935 -0.045852024 -0.033039212 -0.034074526 -0.06730082 -0.066448845 0.00012954956
-0.038054176 -0.061368637 -0.03691487 0.017952025 0.046000775 -0.06314411 -0.05767214 -0.017548095
-0.009212677 -0.032440357 0.072335966 -0.013789449 -0.07796326 0.018052612 -0.06375703 0.011345858
-0.08798946 0.014455923 -0.05541037 -0.054525804 -0.0064536794 -0.019746559 0.0093736565 0.07688002
0.05004498 -0.067831434 0.047907326 -0.016011657 -0.005974553 -0.019755468 -0.024040196 0.06777375
0.025508035 -0.08185893 0.0017644493 0.0071537998 -0.013552159 0.0017015137 0.0018209039 0.062345106
-0.059550636 -0.0185082 -0.08564291 0.001690471 0.004370568 -0.011369412 -0.07960447 -0.0085200295
-0.063952744 0.026391178 0.009067651 0.06838484 0.017874293 0.056773838 -0.041079387 0.08914428

sequential_1/conv2d_5/Conv2D_bias f4 [64]
00000000: d0de ddbb 7825 9238 98c1 d53a 6d6a 6e3b
00000010: 91a7 f1ba 0000 0000 610c 0abb f8db 2bba
00000020: 0000 0000 f75b 883c 4364 9c3a 48d9 b33b
00000030: 64ee 47bb 46b9 093c 0c41 c4bb 4135 c4bb
00000040: 73cc 6c3b ef79 fe3b 42cb c9bb 02c9 00bc
00000050: 5442 99ba 12b5 c4bb cb92 d0ba df38 c4bb
00000060: b94b 1abc 872d 58bb 0000 0000 24fa c3bb
00000070: f48e 883b 5057 813b 38df 14bb 9a27 2f3c
00000080: 2e5c 643c 43d2 203a 59ec c23a f620 9abb
00000090: aa56 34bb 1315 a4ba 205a fdbb 3d31 c4bb
000000a0: 33ac 9bb8 3f1c 79bc 6a86 003b 5978 a7ba
000000b0: 8609 993b 0d40 e23b 0307 f7ba 4301 a8bb
000000c0: 3806 fd3a b72c 0f3b 783a 013c d081 02bb
000000d0: 0f4f c33b 9e58 b9bb 2005 403b 9f1a 92bb
000000e0: 462a bb3b 241d c4bb 4c50 58bb 3b4c 41bb
000000f0: 6e8e ca3b 8b16 e5ba d0bd 9f3a e09a b03b
-0.006770946 6.9688016e-05 0.0016308306 0.0036379353 -0.001843678 0.0 -0.0021064507 -0.000655591
0.0 0.016645415 0.0011931736 0.0054885484 -0.0030507082 0.008405989 -0.0059891995 -0.0059877937
0.0036132603 0.0077660005 -0.0061582634 -0.007860424 -0.0011692741 -0.0060030306 -0.0015912888 -0.005988225
-0.009417468 -0.003298612 0.0 -0.005980747 0.004167432 0.003947176 -0.0022716057 0.010690594
0.013937993 0.0006134847 0.0014871462 -0.0047036363 -0.0027517476 -0.0012518488 -0.007731691 -0.005987315
-7.4230506e-05 -0.015204488 0.0019611367 -0.0012776955 0.0046703247 0.006904608 -0.0018846694 -0.0051271035
0.0019304221 0.002184672 0.007887475 -0.00199138 0.0059603523 -0.005656316 0.002929993 -0.00445874
0.0057118265 -0.005984919 -0.0033006845 -0.00294949 0.0061815297 -0.0017478032 0.0012187306 0.0053895563

sequential_1/dense_2/MatMul/ReadVariableOp/transpose f4 [64, 128]
00000000: 648a c2bd cd57 bbbd 9857 bb3d 2b7c e5bd
00000010: 96c9 1abd 9883 b8bd f001 753d ba6f 233d
00000020: 1bef 88bd 0d9d d33d 61a2 45be 6c26 3ebe
00000030: 1edf a6bd 2129 043d cf29 2b3e 5ce4 2d3e
00000040: 075b 503c 84fa 033e 95be 76bd b420 cfbd
00000050: b03f 13be 42ed 25be 268b c5bd fcc9 143d
00000060: 8d77 183e 3199 2f3e 5c4e 4abd 68f0 d53d
00000070: e272 1abd 2cab 18be 8fd1 59bc 9e72 063e
00000080: e00a 8fbd 39b4 8fbd 1235 ff3d d7a8 913d
00000090: b008 d63d 5c35 0e3e fbd1 f3bd 82c2 8b3c
000000a0: 63f0 c6bd 8e07 8e3d e51d 663c 49fe 36bd
000000b0: 1d67 e13d 4ff5 b63d 2dcb 69bd df92 343e
000000c0: 9fd5 c13d 5fb3 b43c 995e dcbd 7df8 e93c
000000d0: ee00 cd3d 73ff 81bb db87 33bc 1855 113e
000000e0: 4070 8e3d 60c8 17bd ac24 2fbd fabb 983c
000000f0: f992 003d 0f75 c0bd 1bfb b83d e5ea 3dbe
00000100: d093 6b3d 2c4e f2bd 77b7 1b3e 59bb 1c3c
00000110: 0b59 593d bed8 a73d fb93 04be 397c b93d
00000120: 7e15 06be eb28 9ebd 59ea c73b c732 12bd
00000130: e697 563d d2c0 e2bd 2120 bc3d ea93 063e
00000140: 474e 3bbe 92e9 0c3e 5fc1 03be 9c3b ab3d
00000150: ad85 dbbd 0ade 993d 7bdf 5b3d eace c6bd
00000160: ed81 85bd 49d8 563d 88b6 abbd 4327 333d
00000170: 71ac f8bd 1fa9 30be 0798 d6bd 7f1c 1b3e
00000180: 8f14 9fbd 0947 1f3e b5f6 08be 532e 01bd
00000190: 21cb d1bd 22be 21be 408b 9bbd 240a 353e
000001a0: 17e4 3cbe 182e 813d 1c94 93bd a5e6 1f3e
000001b0: bc92 863a 5e62 e0bd a8ff 11be 398c 96bd
000001c0: c42d 533c b09e fbbc 5d27 88bc 2b0b 86bc
000001d0: 093c e23d 1cff 513d 11fe 81bc d12b a4bc
000001e0: 4d89 bebd 594c 123e 95ec 173e 3368 4ebd
000001f0: 950f 23be 206d febc 101e 46be 171d b63d
00000200: 2ac9 84bd eaec 23be 649c 793d 28c9 19be
00000210: edf0 413d 2606 1dbe c999 b93c 2c76 093e
00000220: d215 7bbd 8f57 1cbe 8717 ff3d e6c4 ae3d
00000230: 4850 f33d 8b8e 06be 1f91 173e fb10 293e
00000240: fcf9 62bc b079 0f3e fcd6 1d3e 68b4 d5bd
00000250: 70bc 51be 6cb2 183e d797 06be 9af1 f6bd
00000260: e0ca b1bd 6606 dabd da05 eb3d 612a 2ebe
00000270: 7e47 e2bd a897 05bd 17ed 9d3d f08d 243d
00000280: e266 1a3e f265 1abd df96 b23d 604a 5a3d
00000290: b38b f53d f1dc 88bd 246d 2d3e b82d 823d
000002a0: 8d20 1bbe 55de 1b3d fe83 28bd 400f 1d3d
000002b0: fb38 5a3c 84c5 9d3d 0c36 123e 4e5b 24be
000002c0: 7efd 4fbd c2b5 053e 3394 df3d a5e7 84bd
000002d0: eab8 a43d a599 0e3e b1e8 083c 4478 563d
000002e0: 365d 88bc 6329 093e fb85 f3bd 3ac1 a0bb
000002f0: 4169 2bbd 4453 d43d 2678 8fbd 3876 99bd
00000300: 79d7 c0bc 4fc7 b7bd 86af 6a3d 2707 89bd
00000310: 290e 13bd df4f 153e 7fa8 c13c 876c 0dbe
00000320: 86c1 b93d f8b8 dcbd ed68 d33d 9e41 0c3e
00000330: 72d8 283e 44ea 38be 427c e13d 2139 e33b
00000340: 7af5 29bd 13c4 ab3d a9a0 163d 91e2 c23d
00000350: 8f7f 483b 4f45 dd3d 1c92 993d 580b 21be
00000360: 832b aa3c 8996 fc3d 8536 2bbe e0a6 ea3d
00000370: 6e25 953d 19cf a6bd 2cb5 de3d 33b5 0f3e
00000380: f8ac e93d 11c5 c0bd 6b27 0fbe 3f2a b93d
00000390: adfd 273a 3e49 d6bd ec97 ae3d c515 80bd
000003a0: cc06 adbd dacc d6bc 1a47 06bd d682 20be
000003b0: 9a40 37bd 856c 293c dad2 8b3d 862c cc3d
000003c0: e144 35be d453 1fbe b154 a9bd 372f 30be
000003d0: 205d 8ebd 8e29 c33d 21f7 c8bd 2111 003e
000003e0: 2f25 143e 0dec a8bd 1e50 08be caa1 653d
000003f0: d2b7 c63d 1306 023d aec0 2cbb aa5f bcbd
-0.09499052 -0.09147606 0.091475666 -0.11205324 -0.037789904 -0.090094745 0.0598163 0.039901473
-0.06686231 0.103326894 -0.19300224 -0.18569344 -0.08148025 0.032265786 0.16715167 0.16981643
0.012717015 0.12888533 -0.060240347 -0.101136595 -0.14379764 -0.16203788 -0.09645681 0.03632544
0.14889355 0.17148282 -0.049391136 0.104462445 -0.037707217 -0.14909047 -0.013294592 0.1312966
-0.06984496 -0.070167966 0.12461294 0.07112282 0.10450876 0.13887542 -0.11905285 0.017060522
-0.09713819 0.06935035 0.014045213 -0.0446761 0.110059954 0.08933508 -0.05707853 0.17634152
0.09464573 0.022058187 -0.107602306 0.028560871 0.10009943 -0.0039672195 -0.010957683 0.14192617
0.06955004 -0.037056327 -0.042759582 0.018644322 0.031390164 -0.09397327 0.090322696 -0.18546636
0.05751401 -0.11831316 0.15206705 0.009566152 0.053063434 0.08195637 -0.12947075 0.09056897
-0.13094136 -0.07722648 0.0061009345 -0.035692956 0.052390955 -0.11071934 0.091858156 0.13142362
-0.18291579 0.13760975 -0.12866734 0.08360979 -0.10718856 0.07513054 0.053679924 -0.097074345
-0.06518922 0.05245236 -0.083844244 0.043738615 -0.121422656 -0.17252015 -0.10478216 0.15147589
-0.07767593 0.15554442 -0.13375361 -0.03153832 -0.10243822 -0.15795186 -0.07594919 0.1767965
-0.18446384 0.0630762 -0.07205984 0.15615328 0.0010267119 -0.10956262 -0.14257681 -0.07350964
0.012889329 -0.030715317 -0.016620332 -0.016362747 0.11046607 0.051268682 -0.015868219 -0.020040425
-0.09303532 0.14286937 0.14836343 -0.05039234 -0.15923913 -0.031057894 -0.19347405 0.08892267
-0.064836815 -0.16008344 0.06094016 -0.15018141 0.047348905 -0.15334377 0.022656338 0.13423985
-0.061300106 -0.15267776 0.12455659 0.08533649 0.11880547 -0.13140313 0.14801453 0.16510384
-0.013853546 0.14011264 0.15414041 -0.104348004 -0.2048204 0.14911813 -0.1314386 -0.120578006
-0.086812735 -0.10645752 0.114757255 -0.17008354 -0.11048792 -0.032615334 0.07711237 0.040174425
0.15078309 -0.03769488 0.087201826 0.053293586 0.11989536 -0.06682766 0.16936165 0.063563764
-0.15149136 0.03805383 -0.041141503 0.03834462 0.013319249 0.07703689 0.1427843 -0.16050455
-0.05077886 0.13057616 0.10916939 -0.06489495 0.08043082 0.13925798 0.008356259 0.052360788
-0.016646009 0.13394694 -0.11890789 -0.004905847 -0.041848425 0.10367444 -0.07005338 -0.074932516
-0.023540245 -0.08973562 0.0572963 -0.06690817 -0.035902176 0.1458125 0.023639916 -0.13810931
0.09070115 -0.107774675 0.103227474 0.13696906 0.16488817 -0.18058115 0.110100284 0.0069343005
-0.04149387 0.083870076 0.03677431 0.0951587 0.003059361 0.10804235 0.07498571 -0.15726984
0.020772701 0.123334 -0.16720016 0.1145761 0.0728253 -0.081449695 0.108743995 0.14033966
0.11409944 -0.094125874 -0.1397988 0.09041261 0.0006408345 -0.104631886 0.085250705 -0.06254152
-0.08448562 -0.026220728 -0.03278265 -0.1567491 -0.044739343 0.0103408145 0.06827326 0.0996943
-0.17702056 -0.15559322 -0.08268107 -0.17205511 -0.06951356 0.0952941 -0.09812761 0.12506534
0.1446731 -0.08248148 -0.13311812 0.056062497 0.0970303 0.031744074 -0.0026359963 -0.09197934

sequential_1/dense_2/MatMul_bias f4 [64]
00000000: bbca efbb 2d1e 04bd 372f 09bc e50c 86bc
00000010: dd47 b33c 04cb 2dbc 0000 0000 2efd 9f3b
00000020: e076 05bc 60fd 22bb 8746 b4bb b49b 8fbc
00000030: 4f45 c4bb 3423 013d 1b15 753c 1cbd 863c
00000040: eeb8 aa3c 7402 b03c 3ccb 7b3b 96e7 9d3c
00000050: 9145 c4bb e5af a4bb f703 71bc 3c0f 863c
00000060: d518 c4bb 3ec2 973b 355a 64bc 0d2e 303c
00000070: 4832 c4bb 0496 14bc f194 b5bb 1696 7bbb
00000080: 0a26 8f3b 9e3d 13bc 2366 9a3c e2db ba3a
00000090: c7ff c43b 712a de3c be07 81bc ed2d b0b9
000000a0: da7b b0bc 4d9f 8dba f808 cb3a 1db1 593c
000000b0: 41d0 efbb b5c0 3cbc 930a 6c3c bab0 22bc
000000c0: 7945 bfbb 0c95 b5bb 0138 21bc 0000 0000
000000d0: 19f6 5b3b 12c2 9dbc be40 483c c8d7 163b
000000e0: 71ac 24bb fa9e a63c 4d9a 1cbc 6f62 243c
000000f0: 975b cbbb 519b d0bc 98ec 0d3c b8e1 87bc
-0.0073178685 -0.03225534 -0.008373073 -0.01636357 0.021884853 -0.010607485 0.0 0.0048824763
-0.008146018 -0.0024870262 -0.0055015716 -0.0175303 -0.0059897075 0.031527713 0.014958645 0.016447596
0.020840134 0.021485545 0.0038420698 0.019275468 -0.0059897383 -0.005025851 -0.014710418 0.016364686
-0.0059844055 0.00463131 -0.013937523 0.010753167 -0.0059874393 -0.00906897 -0.005541437 -0.0038389019
0.0043685483 -0.008986859 0.01884753 0.0014256204 0.0060119363 0.027119847 -0.015750762 -0.00033603553
-0.021543432 -0.0010804922 0.0015490344 0.013286856 -0.007318527 -0.011520554 0.014406818 -0.00992983
-0.005837139 -0.0055414494 -0.0098400125 0.0 0.0033563434 -0.019257579 0.012222467 0.00230168
-0.0025127197 0.020339478 -0.009558273 0.010033234 -0.0062059867 -0.025464686 0.008662365 -0.016587123

sequential_1/dense_3/MatMul/ReadVariableOp/transpose f4 [2, 64]
00000000: 11fd b1bb 3981 553d 931f 0fbe ebb4 5cbc
00000010: 9aea 96be 55f1 88be 880d 8f3e 8bbb 42be
00000020: 74f4 7ebe e350 94be 82e5 89be 3266 943d
00000030: f176 573e fbdf 53bd 442c 353d ddca 85be
00000040: fca2 27bd aef4 4fbe 3aff 89be fcbc 883e
00000050: 01f1 963e 2aa1 01be 6c9b 803e 738d acbd
00000060: 6639 543e 5730 da3d 097b 823d 43fc 893e
00000070: 9af9 1b3e e8e0 31bd 5376 66be c9df 833d
00000080: 337e 14be 6eaf 99be 7777 5b3e 249d dc3d
00000090: 70bf 70be 0631 0f3d 5a39 c43d 2737 613e
000000a0: c2f8 cf3d 65dd 363e 0842 c3bd 5583 4f3d
000000b0: a3ec 0c3e f514 19be b63b 6f3e c574 e2bd
000000c0: c72d 9d3d 55fb 1abe eff0 23be d429 7c3e
000000d0: 372f a03d e486 2e3d bebe 4b3e dc36 69be
000000e0: eaae 173e 0cde 9b3c efe5 81be 42e2 5c3e
000000f0: 4850 27be 8ed0 5e3e 12ac 093e 84b2 d2bd
00000100: c2aa 27be d823 4a3d 3870 c13d deb9 d83d
00000110: cc76 9bbe 013f 85bd 7609 9a3e 71fd 25be
00000120: 237d 26bd e384 e3bd b9a3 f5bb 9cb0 5a3d
00000130: b4ac 60be 2142 04be af5e 64be 000e 81be
00000140: 621a 1cbd 84a6 5dbe 614e 85bd 4280 36be
00000150: 56b2 21be 16b3 8a3d 117f 8a3e bffc 87bd
00000160: 9343 853e 8f6f f9bc 5f2b 043d b4e9 01be
00000170: 2e70 8b3d 38fa 7a3d 79f9 7a3e 2e3c 803e
00000180: cce4 90be 8465 523e ac21 8abd 2452 1bbc
00000190: 325c 18bd ca34 4fbd 4672 3d3e 1a34 853d
000001a0: af8f cb3d e2b8 ee3c 78f1 bc3b cdf5 4bbe
000001b0: 3af5 043e a0f7 8a3e 8366 72bd 501c adbc
000001c0: 8b26 b23d 635d 673e 1d73 d53d 5080 1bbd
000001d0: b23c 3c3d 4857 803e 9ee9 01be 4ea9 e83c
000001e0: 5287 a6bd f0d1 d1bd 535c b8bd 4c52 8cbe
000001f0: c80e 363d 82c9 7c3e bc1e 92be 3535 513c
-0.005431779 0.05212519 -0.13976888 -0.013470869 -0.29475862 -0.26746622 0.2794001 -0.19016854
-0.24897939 -0.28967962 -0.26932913 0.07246055 0.21041466 -0.051727276 0.044231668 -0.26131335
-0.04092692 -0.20308182 -0.26952535 0.26706684 0.29480746 -0.12659135 0.25118577 -0.08425417
0.20725021 0.10653751 0.06371123 0.26950273 0.15231934 -0.043427378 -0.22506075 0.06439168
-0.14501266 -0.30016655 0.21432291 0.1077216 -0.23510528 0.03495886 0.095812514 0.21993695
0.10154869 0.17857893 -0.09534079 0.050662357 0.13762145 -0.149494 0.23362622 -0.11057428
0.07674747 -0.15134938 -0.16009878 0.24625331 0.078215055 0.04260911 0.19896981 -0.22774833
0.14812818 0.019026779 -0.25370738 0.21570686 -0.16339219 0.21759245 0.13444546 -0.102879554
-0.16373733 0.04935059 0.09445232 0.10582326 -0.30364072 -0.06506158 0.30085343 -0.16209961
-0.040646683 -0.111093305 -0.007496324 0.053391084 -0.21940881 -0.12915851 -0.22301744 -0.25205994
-0.038111098 -0.21645552 -0.0650909 -0.17822364 -0.15790686 0.06772439 0.2705007 -0.06640004
0.26028118 -0.030448703 0.032267924 -0.12686807 0.06808506 0.061273783 0.24509229 0.25045913
-0.28299558 0.20546538 -0.06744704 -0.009480033 -0.0371973 -0.050587453 0.18500623 0.06504078
0.09939515 0.029140893 0.00576609 -0.19917984 0.12984172 0.27142048 -0.059179794 -0.021131665
0.08698758 0.22594218 0.10422347 -0.037964165 0.04595632 0.2506659 -0.12686774 0.028401043
-0.08131279 -0.102451205 -0.090019844 -0.27406538 0.04444769 0.24686244 -0.28539073 0.012769033

sequential_1/dense_3/MatMul_bias f4 [2]
00000000: fc80 403b 3398 afbc
0.0029373756 -0.021434879
