app/src/main/assets/model.tflite (tflite, 373172 bytes, 9 tensors)

sequential_1/conv2d_3/Conv2D/ReadVariableOp f4 [32, 11, 11, 4]
000000 b6 f1 08 bd d2 90 6a bc 4d 62 a1 bc 61 7e 2d bd
       -0.03343364 -0.014316754 -0.019700194 -0.042356852
000010 42 6f 45 3c 4c d1 8b bc 69 08 28 bd bc b6 99 3c
       0.012050452 -0.017067574 -0.041023646 0.018763892
000020 c2 54 57 3c 67 1d b3 3c 3b e4 f6 bc 9d 21 1e bd
       0.013142766 0.021864606 -0.030138126 -0.038606275
000030 1a 0d 03 bd a1 e2 9a 3c 52 e7 f0 3c ae 0d 75 bc
       -0.031994916 0.018906893 0.029407177 -0.014956875
000040 76 1c ae bb 7f 8f ca bc 7b 9c bd bc 43 b7 8e 3c
       -0.0053134514 -0.024726627 -0.023145905 0.01742137
000050 e5 ad 96 bc 69 36 9f 3c c2 81 ec 3b ec bf ed 3c
       -0.018393466 0.019435124 0.007217617 0.02902218
000060 0c 06 92 bc c5 aa 80 bb 71 50 e5 bc 51 7c d7 bc
       -0.017825149 -0.0039266073 -0.027992459 -0.026304396
000070 34 d8 16 3d 92 71 b0 bc c1 6d aa bb b0 55 3c 3c
       0.03682728 -0.02153853 -0.005201072 0.011495039
000080 b9 bc 8f 3b 85 13 6e bb 03 f8 eb 3c 4d b1 49 3b
       0.004386511 -0.0036327553 0.028804785 0.0030775846
000090 bd 80 ba 3c cb 52 1c bc 49 44 08 3d a4 3b 0c 3d
       0.022766465 -0.009541224 0.033268247 0.034236565
0000a0 f9 cb 75 3c 23 23 21 3d e2 24 b0 3b 62 95 24 3d
       0.015002244 0.03934015 0.0053754905 0.040181525
0000b0 20 04 e8 3c 04 b4 69 3b d6 ae bf bc d3 c3 79 bc
       0.02832228 0.0035660276 -0.023398798 -0.015244442
0000c0 f1 23 be bc 74 c7 62 3c 8d 57 41 3a eb f6 34 bd
       -0.023210498 0.013841499 0.0007375412 -0.04418079
0000d0 d3 e8 17 3d bc bd 74 bc eb 38 84 bc 90 a5 49 b9
       0.037087273 -0.014937814 -0.016140422 -0.0001923053
0000e0 89 b2 62 bb ad d6 bc bc 1e 72 61 3c e4 8b f6 bc
       -0.0034591279 -0.023051584 0.013760118 -0.030096002
0000f0 7d df 2f bb a6 d2 d2 bc 66 7d b2 3c a9 e4 ee bc
       -0.002683609 -0.02573521 0.02178831 -0.029161768
000100 bf 8f 39 3c 61 38 ea 3b 24 e5 01 bd 7e b2 fe 3b
       0.011325776 0.007147834 -0.031712666 0.007772743
000110 77 60 35 bc cc 8a 0f 3d 86 7f 11 3b 4a 04 3a 3c
       -0.011070362 0.035044476 0.0022201254 0.011353562
000120 e6 bb 3d 3c cd 8d 06 3d cb b1 06 3d f5 79 e7 3c
       0.011580443 0.032850076 0.0328844 0.028256396
000130 fb 02 02 3d 1b 8b 86 3c aa c5 06 bd c3 12 d0 bb
       0.031741124 0.016423753 -0.03290335 -0.006349893
000140 88 d2 40 bc 6b cd d5 3b 23 1b ab 3c bf 4a 12 3d
       -0.011768945 0.006524732 0.020886963 0.035715815
000150 39 b5 29 bb 7a ad e5 3c bd ae 03 bd a3 a1 2b 3d
       -0.002589537 0.028036822 -0.032149065 0.041902196
000160 d7 5d c7 bb 48 3c 00 bd 87 44 9e 3c 42 7b 73 bc
       -0.0060841846 -0.03130749 0.019319786 -0.01486093
000170 cf 70 9f 3c 12 15 64 bc 7f 2d 83 bc 21 bf 89 3c
       0.019462971 -0.013921039 -0.016012905 0.01681477
000180 48 c4 d8 bb 63 40 5d 3c 67 6e 60 3c 7c 65 3f bb
       -0.0066151954 0.0135041205 0.013698197 -0.0029204777
000190 e8 c5 02 bc 35 ca ae 3c c5 0a f5 bc ac c8 94 bc
       -0.007981755 0.021336654 -0.029912362 -0.018162094
0001a0 1f 79 f0 3b 82 7f e3 3c 0f 89 5d bc 96 34 28 bd
       0.0073386575 0.027770761 -0.013521447 -0.041065775
0001b0 4c 1d d3 3b 8a e3 e2 bb 22 f4 1a bd 69 89 cb b9
       0.0064427014 -0.0069240974 -0.03783048 -0.00038821556
0001c0 d8 08 66 bc 76 83 e2 bc 91 63 c7 bb e6 55 e2 bc
       -0.014040194 -0.027650576 -0.0060848673 -0.02762885
0001d0 88 8b 10 3d 0a d9 ee 3c fe 5a ea 3c fb 6c 8f 3c
       0.035289317 0.029156227 0.028607842 0.01750802
0001e0 c0 0a e1 bc d7 96 b2 3c df ee 3a 3c 64 b4 43 3c
       -0.027470946 0.021800442 0.01140949 0.011944864
0001f0 d5 d2 aa 3c 36 7e 80 bc 09 0e be bc 1d ac 00 3d
       0.020852486 -0.015685182 -0.023200052 0.03141414
000200 80 46 d7 bc 87 c6 da 3c 74 77 05 3d b0 e7 e1 3c
       -0.026278734 0.026705993 0.032584623 0.027576298
000210 1f 8b d5 3c a9 9b f2 3c 0f 11 7e bc ec 1c 7a bc
       0.026067315 0.02961524 -0.015506997 -0.015265685
000220 b8 82 02 bd ca 12 80 bc fd ec ae bc 1e 78 05 bd
       -0.031862944 -0.01563396 -0.02135324 -0.032585256
000230 89 cf 7e 3c fb c7 0a bd 97 31 8e bb a5 6f 62 bc
       0.01555241 -0.033882122 -0.0043394077 -0.013820563
000240 bb 0b 8c 3c 7f 94 b7 bc f2 79 1e bd be af 52 3c
       0.017095437 -0.022409676 -0.038690515 0.012859283
000250 a5 62 93 ba 15 fc 16 bd 9b 09 39 bd b0 5b b6 bc
       -0.0011244608 -0.036861498 -0.045175176 -0.022260517
000260 53 13 ab 3c 8b 9f c3 bb b5 96 57 3c b4 e7 c8 bc
       0.020883238 -0.0059699467 0.01315849 -0.024524547
000270 96 89 88 3c 65 a9 b1 3c 76 78 22 bc 40 b7 b0 ba
       0.016667169 0.021687219 -0.009916415 -0.0013482347
000280 5b 1a 06 3d c9 f7 b7 3c 38 36 d2 ba 71 6b ed 3c
       0.03273998 0.02245702 -0.0016037887 0.028981896
000290 e4 9a 8a bc 46 4f a1 bb 32 27 51 3c 62 69 7c 39
       -0.01691956 -0.00492278 0.012765693 0.00024071851
0002a0 ad 71 65 bc 31 81 75 3b 0c e0 11 3c 84 bd e7 3c
       -0.014004153 0.0037461037 0.008903515 0.02828861
0002b0 88 9d e5 3c 26 e6 08 3d 85 33 b5 bc ad 42 4c 3c
       0.028029218 0.03342261 -0.022119293 0.012467069
0002c0 cf dd a1 bc 9d a9 f8 3b f9 c1 2c bd 30 ca 84 3c
       -0.019759087 0.007588579 -0.042177174 0.016209692
0002d0 a7 35 05 3d f5 23 0d bd c2 23 01 bd f4 eb c0 bc
       0.03252187 -0.03445812 -0.031528242 -0.023550011
0002e0 83 f2 9a ba 0c 52 cb 3c 85 8c d6 3b fa 3a 2f bc
       -0.0011821542 0.024819396 0.006547513 -0.010695213
0002f0 f1 00 b8 bc 54 0f 18 3c 95 74 02 bd 9f 3f 13 bd
       -0.022461386 0.009280998 -0.031849463 -0.035949346
000300 34 82 c8 ba 82 26 80 bc 32 42 d9 3a 3d 1e 8e bb
       -0.0015297593 -0.015643362 0.0016575514 -0.004337101
000310 69 81 fb bb 6e e7 f1 bb 2f e1 86 3c 05 84 e8 3b
       -0.007675339 -0.007382325 0.016464798 0.007095816
000320 4e b2 bf 3c b1 a9 fe bc c0 73 ad bc e0 56 d5 3c
       0.023400452 -0.031086775 -0.021173358 0.026042402
000330 9b 6a 23 3c 58 e9 f1 3c 3e 76 6e bc 00 ca 66 bc
       0.009974147 0.029530212 -0.014554558 -0.0140862465
000340 e2 0c 53 bc 4f 20 6d 3c 74 f3 7f b8 26 c5 0c 3d
       -0.0128814895 0.014473035 -6.102347e-05 0.034367703
000350 2c 03 25 3d 09 59 4c 3c 4c c1 9c ba cd 51 d8 3c
       0.040286228 0.0124723995 -0.0011959462 0.026406193
000360 e9 22 bc bc 7c 64 27 3d e5 db d3 3c 9e 28 e2 3c
       -0.022965865 0.040867314 0.02586169 0.027607258
000370 34 3f cc 3c 45 56 8f 3c e1 d5 e8 bc 85 68 08 bd
       0.024932481 0.017497191 -0.028422298 -0.033302803
000380 f3 4a a4 bc a1 c1 b6 3c a4 e7 0a bd 43 4b d5 bc
       -0.02005527 0.022309126 -0.033912316 -0.026036864
000390 7a 90 bb bc d3 bb 74 39 77 fc 99 bb f1 21 8c bc
       -0.02289604 0.00023339623 -0.0046992856 -0.017106028
0003a0 26 29 da 3c df e1 27 bc 00 24 a9 bc 10 bb 8a 3b
       0.02663095 -0.010246723 -0.020647049 0.0042337254
0003b0 6d 9d d9 bb 69 09 bb bc 08 8a 06 bc 98 45 db 3c
       -0.006641081 -0.022831636 -0.00821162 0.026766583
0003c0 66 72 b1 3c 2c 8f bc 3b 50 ee 26 bc 8b cb 04 bd
       0.021660995 0.005754372 -0.010188654 -0.032420676
0003d0 16 3b 98 bb da 4c a7 bc ab 00 b3 3c 7c fd 00 3d
       -0.0046457155 -0.020422388 0.021850904 0.03149174
0003e0 7d c5 b1 bb 9b 07 d9 bc 07 e9 1e 3c 50 cd bc 3c
       -0.0054251538 -0.026492884 0.009699113 0.02304712
0003f0 f1 ba 13 3c 9a dc 4e bb fb 03 08 bd 19 2d c2 bc
       0.009016738 -0.0031564594 -0.03320692 -0.023703145

sequential_1/conv2d_3/Conv2D_bias f4 [32]
000000 a0 6d 13 3c 34 95 27 bc 03 7f d4 b9 6a 21 c5 3b
       0.008998305 -0.010228444 -0.00040530422 0.006015946
000010 99 b9 46 3c d1 a0 83 3b 9d 86 33 bb d1 ba 04 bc
       0.012129211 0.0040169735 -0.0027393468 -0.008101181
000020 53 eb 0f bc 94 6e b4 3b 86 15 8b bb 8b 91 dd 3b
       -0.008784133 0.005506346 -0.004244509 0.006761735
000030 f1 36 db bb 7a 6d 07 bc bb fe ae 3b 15 6b 07 3c
       -0.006689899 -0.008265847 0.005340425 0.008265276
000040 12 40 85 bb c8 ce 40 bb dc 58 b5 bb 47 56 3e 3c
       -0.0040664757 -0.0029420126 -0.0055342745 0.01161725
000050 4e f7 19 3c d2 9a 7b 3c 60 88 64 3b 35 89 f9 3b
       0.009397341 0.015356736 0.0034871325 0.0076152333
000060 d6 77 72 3c 1a ab 19 3c ba 0b 85 bc 57 96 c2 bb
       0.014799079 0.009379173 -0.016240943 -0.005938332
000070 ed 3a 12 bc a6 a3 d4 3b db 90 2a bc eb 6d bc bb
       -0.008925182 0.006489235 -0.010410513 -0.005750408

sequential_1/conv2d_4/Conv2D/ReadVariableOp f4 [32, 7, 7, 32]
000000 1f 89 51 bd 96 40 15 bd 9d 98 0b 3d 2e 7a c8 bb
       -0.05115616 -0.036438547 0.03408109 -0.0061180806
000010 04 ec fa bb ce b6 04 3d 9a ee a1 bc a0 a3 5b 3c
       -0.00765753 0.0324009 -0.019767094 0.01340571
000020 07 3a 26 3d 1f 79 91 39 2e d6 16 bd 7d 6d e5 bc
       0.040582683 0.00027746797 -0.03682535 -0.02800631
000030 a1 8f 10 3d c9 57 99 bc 2b 96 9f 3c 82 1e 55 3c
       0.035293225 -0.018718617 0.019480785 0.013007762
000040 59 a5 c5 3c 04 0b 8c 3c a3 73 07 bd 70 74 01 3d
       0.024126695 0.017095096 -0.033069264 0.031605184
000050 4e 74 82 bc 35 93 1c 3c db fd 73 bd 07 50 b9 bc
       -0.015924599 0.009556581 -0.059568267 -0.022621168
000060 64 48 2c 3d ad 9f 8b 3b 54 2a ec bb 18 48 0d 3b
       0.042061225 0.004260978 -0.0072071943 0.0021557864
000070 4c 3e 50 3d 72 35 fa bb dd 90 0e 3d 10 b7 6b bb
       0.05084066 -0.0076357657 0.03480612 -0.0035967268
000080 b8 4e d5 bc a2 b2 2c bd 53 c4 11 3d 29 9f 87 bc
       -0.026038513 -0.042162545 0.03558762 -0.016555386
000090 df b6 1e bc df 76 be 3c 68 ee c7 bc 23 13 92 3c
       -0.009687155 0.023250042 -0.024405673 0.01783139
0000a0 5f bd 10 bd 8d cf 0d bd 22 e7 f4 bc a7 c0 4d 3c
       -0.03533685 -0.034621764 -0.029895369 0.012558139
0000b0 9e fd f0 bc 4b be ad bc 79 18 7d bb b7 b7 6d bc
       -0.02941781 -0.021208903 -0.0038619323 -0.014509133
0000c0 2c 17 8f bb fb 2e 02 bd 95 c2 39 bd aa 2f 32 3d
       -0.004366776 -0.031783085 -0.045351584 0.043502487
0000d0 75 2a d1 bc 7f 40 01 bd 9e 13 b9 3b cd 22 5e bd
       -0.02553294 -0.03155565 0.0056480905 -0.054232407
0000e0 70 2b 33 3c 4b bf 01 3d 3a 23 48 3c b6 fd 3c 3c
       0.010935649 0.03167657 0.01221543 0.011535099
0000f0 96 26 9e 3b 99 d4 4b 3c 14 40 80 bc d1 81 30 bc
       0.004826377 0.012440824 -0.015655555 -0.010773138
000100 15 b2 ea bc 01 09 29 bd 9d 22 e7 bc 8a 9f 48 bd
       -0.02864937 -0.041268352 -0.028214747 -0.048980273
000110 a1 95 7b bb d5 39 f5 3c 94 d4 d1 3c f1 e1 ea 3b
       -0.0038388746 0.029934803 0.02561406 0.0071680476
000120 41 36 e7 bc 1a c8 e4 bc b0 a2 5c bc c9 57 71 bc
       -0.028224112 -0.027927447 -0.013466522 -0.014730402
000130 b3 32 19 3d 62 06 fd 3c a6 b0 88 3b 85 19 02 bd
       0.037401866 0.030886833 0.0041714488 -0.03176262
000140 bb 3f d6 bc da 24 be 3c a9 0f 19 37 c7 7f 93 3c
       -0.026153436 0.023210932 9.123157e-06 0.018005265
000150 ae 02 18 3c 72 65 02 bd d8 04 be bc fe 3b 3e 3a
       0.009277983 -0.031835027 -0.023195669 0.00072568643
000160 eb 04 9f bb 7a 07 85 3c 94 e8 90 3c 9f 14 e6 bc
       -0.004852881 0.016238917 0.017689027 -0.028086005
000170 59 b4 67 3c 6b bd 34 bc 7d 37 81 3c 35 42 30 3d
       0.014142119 -0.011031489 0.01577353 0.04303189
000180 2d b9 bb 3c 30 7a 4d bd 40 91 45 3d f8 88 1a bd
       0.022915447 -0.050165355 0.048234224 -0.03772828
000190 5a a2 6a 3c 73 f6 e0 bc ae 6d bc bc 18 f1 91 3c
       0.014320934 -0.027461266 -0.023001518 0.017815158
0001a0 be d9 66 bc f9 40 3d 3c 0f fe eb 3b 6d 15 10 bd
       -0.01409 0.011551135 0.007201917 -0.035176683
0001b0 5a ab 1d bd a4 4b 24 ba a8 23 d5 3c 1f c1 12 bd
       -0.03849349 -0.0006267375 0.026017979 -0.035828706
0001c0 b7 5a e3 3c d6 b8 7d 3c 81 19 2e bd d9 aa 3f 3c
       0.027753217 0.015485963 -0.04250479 0.011698448
0001d0 dd b3 89 bc 92 4c c8 bb 7b 0f 08 bd 5c 9a 62 3c
       -0.016809398 -0.0061126435 -0.03321789 0.013830747
0001e0 a5 14 f3 3c 46 84 cc bc e9 14 be 3c 0c 67 02 bd
       0.02967293 -0.024965417 0.02320333 -0.031836554
0001f0 4e 93 14 bd 38 39 15 bd 42 65 a3 3b 8a 66 5a 3d
       -0.036273293 -0.03643152 0.004986436 0.053320445
000200 c2 94 38 3d b8 3c 87 3c 5b 39 08 3d 03 ec 78 bc
       0.04506374 0.016508445 0.033257823 -0.015192988
000210 ec 38 da 3c 93 d6 62 3b 67 12 38 3a 68 4d 14 bd
       0.02663847 0.003461276 0.0007021785 -0.036206633
000220 be 0b 19 3d 73 1b a9 3c ee fb ec 3c 80 60 9a 3b
       0.037364714 0.020642972 0.028928723 0.0047112107
000230 e5 22 2d 3d f6 bb 38 3c 3a 85 ec 3b 83 17 bd bc
       0.042269606 0.011275282 0.0072180303 -0.0230825
000240 4b ce 0e 3c 33 61 0e bd bc 34 21 bd 79 db 87 bc
       0.008716176 -0.034760665 -0.039356932 -0.016584145
000250 12 d0 df 3c 96 57 af 3b f2 1d bc 3c 90 e2 0f 3d
       0.027320895 0.005351017 0.022963498 0.035128176
000260 e2 ce 21 3d cf a0 9d 3b 91 7b 8e 3b 2b 58 2a bd
       0.03950394 0.0048104296 0.0043482264 -0.04158799
000270 c0 b2 11 bd e5 b9 21 bd 2c 84 de bc 17 11 a8 3b
       -0.03557086 -0.039483923 -0.027162634 0.0051289904
000280 1c 55 6d bc 8f f5 30 bc 6a e1 49 b9 a7 66 ca bc
       -0.014485624 -0.010800733 -0.00019252827 -0.024707152
000290 e8 23 a0 3c 70 10 14 3d 2c 91 10 ba 00 40 74 3b
       0.019548371 0.03614849 -0.00055147964 0.0037269592
0002a0 cd fa a0 ba da 9c 2d 3d 66 dd 20 3c bf d0 a7 bb
       -0.0012281776 0.042385913 0.0098184105 -0.00512132
0002b0 89 e3 00 3d cb 52 56 bc 39 0c 90 3c 63 16 47 3a
       0.031466994 -0.013081263 0.017583953 0.00075945834
0002c0 3b 79 48 ba 2b 5f 12 3d ba 56 e4 3c 42 50 27 bc
       -0.0007647459 0.03573529 0.027873386 -0.010212006
0002d0 47 ac 4f 3d 14 18 0a 3d 59 f4 0b 3b 07 b1 82 3b
       0.050701406 0.03371437 0.002135536 0.0039883885
0002e0 4e 54 10 3d a9 c0 f4 bc 3c 13 f5 bc 3e 59 16 3c
       0.03523665 -0.029877024 -0.029916398 0.00917655
0002f0 0b 72 fb 3c 2f b7 88 bc d5 87 ee bc 92 a1 3d bc
       0.030694028 -0.016688911 -0.029117504 -0.011574166
000300 d5 ab 34 3d 23 75 02 3d 0a 66 37 3c ba 39 53 3d
       0.044109184 0.03184999 0.011193762 0.051568724
000310 da 62 aa bc df e7 b7 3c 10 09 e7 bc 96 0f 2f 3c
       -0.02079909 0.022449432 -0.028202564 0.010684868
000320 e6 b4 10 3d cf 65 31 3d cd f7 e4 bb fb 39 da bb
       0.03532877 0.043309983 -0.006987548 -0.006659744
000330 46 c8 08 3c 11 87 08 3c f0 91 c2 bc 17 50 0d bd
       0.00834853 0.008332984 -0.023751229 -0.034500208
000340 e4 33 0b bd 90 a5 25 3b 38 4a c8 3c 4f 5f 9f 3b
       -0.033985034 0.0025275685 0.024449453 0.0048636566
000350 33 e2 1b 3c a3 de 9e bc 73 11 23 3d 1c 65 4c bc
       0.009514379 -0.01939327 0.039811563 -0.012475278
000360 65 65 d0 bc 91 ca 3b 3d c8 a4 b2 bc d6 c8 d7 3c
       -0.025438974 0.04584748 -0.02180709 0.026340883
000370 07 6f 27 bd 75 2f e0 bc 86 eb d0 bc 27 7c 68 bc
       -0.04087737 -0.02736638 -0.025502931 -0.0141897565
000380 a2 b5 4a bd a4 23 a6 3c ea 47 b3 bb 51 75 55 bd
       -0.049489625 0.020280667 -0.0054712193 -0.052113835
000390 6c 04 36 3b 56 7f 32 bb c4 9e c8 3c 9a 2a b3 bc
       0.0027773632 -0.0027236543 0.024489768 -0.0218709
0003a0 1a 81 86 3c 72 b4 95 bb b7 c4 19 3d eb 03 0c 3d
       0.016418982 -0.00456863 0.037541118 0.034183424
0003b0 1b 0a 5e bc e8 ce 20 bd f8 2d 0b bd 40 8c d0 bb
       -0.013552214 -0.03925982 -0.033979386 -0.0063643754
0003c0 ec b6 9e bb db e0 b0 bc e2 a0 ad 3a f5 44 32 bd
       -0.0048435833 -0.021591594 0.0013246799 -0.043522794
0003d0 b2 da d6 bc 3f 73 f4 3c df ff 20 bd 62 d8 24 bd
       -0.026227329 0.02984011 -0.039306518 -0.04024542
0003e0 26 36 b6 3b 49 c5 16 3d eb 64 d0 3c b1 58 3a bd
       0.005560654 0.03680924 0.025438746 -0.04549474
0003f0 65 b0 76 3b 17 24 45 bc e9 13 e4 bc 5f 27 f2 3c
       0.003764176 -0.01203253 -0.027841525 0.02955979

sequential_1/conv2d_4/Conv2D_bias f4 [32]
000000 b9 88 b3 3b ee c1 89 3b 63 35 0b bc ab 9b 02 bc
       0.005478945 0.0042040264 -0.008496615 -0.007971684
000010 26 f5 37 bc 7a 42 d4 bb d3 07 1f bb 99 84 c2 bb
       -0.011227882 -0.006477651 -0.0024266138 -0.005936217
000020 9c 0b ac 3a 9c 29 cd bb 84 a6 db 37 90 5a ad bb
       0.0013126018 -0.0062610637 2.6184374e-05 -0.005290337
000030 a5 7f 16 bc b2 a0 90 3b 94 44 38 bb 74 86 ba bb
       -0.009185706 0.0044136876 -0.0028117048 -0.0056922976
000040 40 aa 99 3a 44 43 be bb 17 69 d8 ba 14 d5 9e bb
       0.0011723712 -0.0058063585 -0.0016510811 -0.0048471782
000050 7e 25 85 3a 31 a2 84 3b 3c cf cc bb c0 3d b8 3a
       0.0010158268 0.004047655 -0.00625029 0.0014056489
000060 6c d1 8e b9 5a d9 d6 bb 92 15 80 3a 9b 88 12 3b
       -0.00027240382 -0.006556672 0.0009772053 0.0022359255
000070 33 10 9e 3b e0 99 ed 39 f1 98 c2 bb e9 c8 c2 bb
       0.0048237084 0.00045318808 -0.005938642 -0.0059443605

sequential_1/conv2d_5/Conv2D/ReadVariableOp f4 [64, 3, 3, 32]
000000 c0 af 5b 3d f4 88 8d 3d 30 4f 9d bc e0 93 a9 bc
       0.053634405 0.06910887 -0.019202799 -0.020700395
000010 5f fe 92 3c 36 96 d9 bc 00 aa 58 3d a9 9d 90 3d
       0.01794356 -0.026560884 0.0528965 0.07061321
000020 f9 83 98 bd 87 c6 75 bb 6b 5b 1c 3d 22 cb 4e 3c
       -0.07447047 -0.0037502365 0.03817312 0.012621673
000030 cb 77 91 3c ab f5 62 bd 97 ad c8 bc 3f fb 7e 3d
       0.017757317 -0.05541007 -0.024496837 0.062251326
000040 48 22 78 3d 08 a8 7c 3c 0e 73 5d bd d0 81 d8 bc
       0.06057957 0.015420921 -0.054064803 -0.026429087
000050 62 9e f3 bc 0c bc 13 bd 85 64 33 bd 5b 76 95 3d
       -0.029738609 -0.036068007 -0.043797035 0.07297965
000060 3a e5 2a 3c 82 06 70 bc 8a a8 f1 3c fa f3 f2 bc
       0.010430628 -0.014649989 0.029499311 -0.029657353
000070 ea 46 1a 3d 18 4a 93 3d a1 83 9a 3d bc c4 a4 bd
       0.037665285 0.07191867 0.075446375 -0.080453366
000080 b0 b1 6c bd 1f 9d a4 3b f5 82 e2 3c f0 6f 27 3d
       -0.057786644 0.005023613 0.027650336 0.040878236
000090 c3 dc 82 3d fe e1 45 3d b6 dd 6d 3d 06 21 07 bd
       0.06389763 0.048311226 0.05807277 -0.032990478
0000a0 78 68 21 3b a0 04 31 bd 9a f4 a5 bc b8 f4 b0 3c
       0.0024628919 -0.0432173 -0.020258237 0.021601066
0000b0 67 d5 09 bc 4e d3 79 3c 31 fb 2f 3d cd 5e 72 3d
       -0.0084126955 0.015248133 0.042964164 0.05917244
0000c0 ff 46 15 bd 8f ea 19 bd fc 5a cb bc c8 3b d9 bc
       -0.03644466 -0.037577208 -0.024823658 -0.026517764
0000d0 f4 0d 7f 3d 03 c2 37 bc 85 5c 9b 3d 0a 5a 46 3d
       0.062269166 -0.01121569 0.07586006 0.04842571
0000e0 e6 c7 26 bd 11 5d 97 3d 0e ef 60 bd 90 8a f8 3c
       -0.04071798 0.07390798 -0.05491548 0.03033951
0000f0 63 e5 23 3d 07 08 0f 3c 78 b7 dc bc 67 d1 b1 3c
       0.040013682 0.008729941 -0.026942953 0.021706296
000100 25 bf 8d bb fd b4 b0 bd 9a 66 8b 3b a0 2c 0b 3d
       -0.0043257647 -0.08628271 0.0042541744 0.033978105
000110 6e 92 61 3d ce df 75 bd 0c 3c a9 bc 60 a8 60 bd
       0.055071287 -0.06002789 -0.020658515 -0.054848075
000120 10 a1 e5 ba 3f 8d 1c 3d b2 ff e9 3c e2 c5 08 3d
       -0.0017519314 0.03822064 0.028564308 0.03339184
000130 a8 9a 26 bc ea f1 c6 bd 3e 8d a5 3d 7f fe 62 3d
       -0.010168709 -0.0971411 0.080835804 0.055418488
000140 f3 ca a0 bb 71 6a 55 3d f5 03 0b bd 95 9b 8c 3d
       -0.004907006 0.052103464 -0.03393932 0.068656124
000150 49 f7 77 3d bb 28 e2 bc 4a a0 87 3d 57 4d 07 3d
       0.060538564 -0.027607312 0.066223696 0.03303274
000160 83 1b 8b bd 07 61 31 3d af 89 7c 3d f9 9e 52 3c
       -0.06792357 0.043305423 0.061654743 0.012855285
000170 5a e9 5d 3d 38 13 7b bd d9 1a 1d 3d f3 94 0f bd
       0.05417762 -0.061297625 0.038355682 -0.03505416
000180 5e ca 27 bd 34 b9 4f 3d 86 e5 a4 3c 6c 32 9e 3c
       -0.040964477 0.050713733 0.020128977 0.019311152
000190 73 b1 8a 3d 18 3b f6 3b bf 24 a1 3c 4a 79 4d 3d
       0.06772127 0.0075143687 0.019670842 0.0501645
0001a0 69 d9 1a 3d 11 4f 00 3d 1b 3d cf 3c 52 9d 75 3c
       0.037804995 0.031325404 0.025297692 0.014991121
0001b0 f9 ca 2a bd e2 05 7a bc d9 30 21 bd 58 b9 de 3c
       -0.041697476 -0.015260192 -0.039353225 0.027187988
0001c0 88 08 5f 3c 3e 31 0f 3d 2b 0b 9d 3d 5c fd a2 bb
       0.013612874 0.03495907 0.07668146 -0.0049740504
0001d0 e8 78 79 bd 5b 0b 9e 3d 9a a2 e1 bc 9a aa 2d bd
       -0.06090632 0.0771701 -0.027543355 -0.042399026
0001e0 17 99 b1 3c e6 89 28 bd 0f 58 49 3b 27 31 0d bd
       0.021679444 -0.041147135 0.0030722653 -0.034470703
0001f0 c9 b1 99 3d be d5 84 3d 8f fd 3c bd 53 9e 05 3b
       0.07504613 0.064860806 -0.04614025 0.0020388558
000200 14 87 ce bd dc 3f 8c 3d bd 7b 9b 3d 74 e4 f3 3c
       -0.10084358 0.06848118 0.075919606 0.02977202
000210 12 fa 93 3b 29 82 31 bd 1b 1d a1 bd 48 e0 5d bd
       0.0045158947 -0.04333702 -0.078668796 -0.05416897
000220 fc 97 28 bd c1 30 a1 3b 96 18 07 3d 21 e2 71 bd
       -0.04116057 0.004919142 0.03298243 -0.059053544
000230 67 7c ef 3b eb 19 90 3b 5c 5e 9c bd c4 16 8d bd
       0.007308531 0.004397621 -0.07635185 -0.06889108
000240 d6 6a f1 bc d5 b3 39 3d ed 44 b3 bc 73 5e d2 bc
       -0.029469889 0.045337517 -0.021883452 -0.025679803
000250 80 20 92 bd 67 a0 31 bd 08 35 7b 3a 87 23 26 bd
       -0.07135105 -0.043365862 0.00095827924 -0.040561225
000260 0f c7 02 bd 33 e1 95 bd 31 31 68 3d 62 7d 92 bd
       -0.03192812 -0.07318344 0.056687538 -0.07152821
000270 8d 57 2b 3a 98 8d 95 3b 04 c0 0d 3c 18 13 2e bd
       0.00065361784 0.0045639984 0.008651737 -0.042498678
000280 4e 31 30 3d 28 13 25 bd c4 4a 90 bd 43 f2 94 3d
       0.04301577 -0.040301472 -0.070455104 0.0727277
000290 fb e9 95 3d df 10 d1 3c d5 f2 32 bd 6e e7 87 3d
       0.07320019 0.02552074 -0.043688614 0.066359386
0002a0 81 88 9a bc fb 27 98 bd a0 8b 08 bd 6f 5e 4f bd
       -0.018863918 -0.07429501 -0.03333628 -0.05062717
0002b0 3f 91 0d bd ff f2 b6 bc 97 40 23 3c 6d d9 fc bc
       -0.034562346 -0.022332666 0.00996413 -0.030865395
0002c0 1b 34 96 bd 16 d2 df 3b ac 2d 97 3d 74 73 50 bb
       -0.07334157 0.006830464 0.07381758 -0.0031807097
0002d0 e4 40 89 3d 58 1f 6b 3c 20 8f e7 bb 81 20 ae 3d
       0.0670183 0.014350735 -0.0070666224 0.085022934
0002e0 71 8c 81 3c ff b2 0f bd 4b a8 89 bd 14 f1 a3 3c
       0.015814038 -0.035082813 -0.067215525 0.020012416
0002f0 75 7b 90 3d c9 79 b7 3d b6 8c 27 bd ee c5 59 bd
       0.070547976 0.089587756 -0.040905677 -0.053167276
000300 5f 55 af bd c8 66 df 3c 93 f9 dd bc aa 3f 66 3d
       -0.08561205 0.02727069 -0.027096545 0.05621306
000310 86 62 84 3c c8 db 75 3c e9 3e b1 3d cf cf 91 3c
       0.01616026 0.015006013 0.08654577 0.017799286
000320 bb f5 62 3c d9 94 47 bc 9f 96 6d bd 40 02 60 bd
       0.013852532 -0.012181484 -0.05800497 -0.054689646
000330 e4 7d 22 3d 4e a6 da bc 01 e6 75 bd c2 c2 a1 bd
       0.03967084 -0.026690628 -0.060033802 -0.07898475
000340 db e2 63 bd eb a6 80 3d b2 bf 7b 3d b6 7c b6 3d
       -0.055636268 0.06281837 0.06146211 0.089105055
000350 44 34 2a bd 26 99 8e bd c9 35 a6 3c 16 e3 e3 bc
       -0.04155375 -0.069628045 0.020289319 -0.027818244
000360 02 a0 3f 3c 8c 77 1a 3d 72 7c 37 bc dc a3 8c 3c
       0.011695864 0.037711665 -0.011199104 0.017167978
000370 55 a7 cd 3c 68 40 36 3d 42 b3 54 bd ff 5d 88 bd
       0.025104204 0.044495016 -0.051928766 -0.06658553
000380 75 ba 4c bd 69 71 d2 bc 88 35 3a 3d 26 65 1c bd
       -0.049982507 -0.025688844 0.045461208 -0.0381824
000390 f8 a0 c0 ba 5f 91 86 bd 83 e8 02 3d 78 c6 b8 3c
       -0.001469641 -0.06570696 0.03196002 0.022555575
0003a0 c1 e0 7b 3d d2 66 b4 3d 96 77 5e 3c 3c 60 08 3d
       0.06149364 0.08808674 0.013578316 0.0332949
0003b0 3f 46 96 bd 45 7e bd bb b1 ff 6c bd 86 63 99 3d
       -0.07337617 -0.0057828748 -0.057861034 0.07489686
0003c0 b0 f4 a2 3c 3a 92 37 3c 51 ec 9c 3d 51 6e 9b 3d
       0.019892067 0.011204297 0.07662261 0.075894006
0003d0 58 54 6c bc d3 fd 9e 3a af b1 88 3c f3 17 a4 3d
       -0.014424406 0.0012130089 0.016686289 0.080123805
0003e0 8a b3 1d 3d a7 8e 84 bd 53 2f 62 3d a2 6b 4b 3d
       0.0385013 -0.06472521 0.055220913 0.049663194
0003f0 01 ed 7b bd 44 64 79 bd 76 2e aa 3b 1e c7 00 3d
       -0.06150532 -0.060886636 0.005193527 0.031439893

sequential_1/conv2d_5/Conv2D_bias f4 [64]
000000 39 20 d5 3b 4a a7 d3 b9 14 36 98 3b 1c e3 17 bc
       0.0065040854 -0.00040369696 0.0046451185 -0.009270456
000010 83 aa 1e 3b 49 1c 38 3c 90 62 df bb d1 2a 43 39
       0.002421052 0.011237212 -0.0068171695 0.000186126
000020 5a 11 ae bb 10 7d 92 bb 45 be 9e 3b ff a2 16 3b
       -0.005312127 -0.004470475 0.0048444592 0.0022985337
000030 52 32 2a 3a ca fe 58 bb 1b 84 11 3c 98 fb 62 bb
       0.00064924837 -0.003311085 0.008881594 -0.0034634825
000040 dc ee 80 3a 7b dc c1 bb d3 41 32 bb 0f d3 92 3b
       0.0009836811 -0.005916176 -0.0027199879 0.0044807266
000050 09 3f 1d 3b 53 ae c2 bb ef 94 fc ba 6a 05 b4 bb
       0.002399387 -0.005941191 -0.001927046 -0.0054938095
000060 85 a0 18 3c eb 77 ff ba 96 8f 6b ba 99 03 15 bb
       0.009315615 -0.0019490694 -0.00089859345 -0.002273774
000070 50 bb c2 bb b4 84 fd bb 2d 33 c7 bb 09 26 87 bb
       -0.0059427395 -0.0077367667 -0.0060790987 -0.004124407
000080 ec 2c 43 bb a0 de f1 bb 78 b6 89 3a 05 97 39 3b
       -0.0029781414 -0.0073812753 0.001050665 0.0028318774
000090 ae 9c 07 3a 38 03 60 3a e1 cd 04 bc 5c 4c 9f 3b
       0.00051731884 0.00085454015 -0.008105726 0.0048613977
0000a0 00 00 00 00 8a 05 50 bb dc e4 64 bb d6 ad b2 3a
       0.0 -0.0031741583 -0.003492645 0.0013632129
0000b0 eb 93 b9 bb 7f ea 15 ba 21 68 51 3b 18 d2 c2 bb
       -0.005663385 -0.00057188416 0.0031952935 -0.0059454553
0000c0 f7 32 a3 bb f4 54 8c 3b 88 93 99 3a 89 a6 dc ba
       -0.0049804407 0.004282588 0.0011716941 -0.0016834299
0000d0 b7 0a 93 39 f5 ff 50 ba 6a 4d ec bb 63 9a 25 3a
       0.00028046008 -0.0007972711 -0.007211377 0.0006317256
0000e0 23 87 5a ba 43 a0 92 bb 86 1f 10 bb 2e d2 43 bb
       -0.0008336177 -0.004474671 -0.0021991446 -0.0029879916
0000f0 0b 97 e8 bb ab 99 55 3a 6f 7d ba bb 47 e6 3a bb
       -0.007098084 0.00081482035 -0.0056912224 -0.0028518604

sequential_1/dense_2/MatMul/ReadVariableOp/transpose f4 [64, 128]
000000 fa 26 3b 3a 7a 8f ad bd 85 e7 65 3d 92 ef 02 be
       0.0007139292 -0.084746316 0.056128997 -0.12786701
000010 f4 a1 98 3d 69 d3 9c 3d 1a 7a 2c be ba 87 aa bd
       0.07452765 0.07657511 -0.16843453 -0.08326669
000020 8f b4 26 3d da ad e2 3d 0d 21 7f 3d 84 a3 51 bd
       0.040699538 0.11068316 0.06228738 -0.05118133
000030 7b 4c df bd 6e 0c 2b 3d e3 66 98 bd 12 28 1b 3e
       -0.10903259 0.0417599 -0.07441499 0.15152004
000040 aa 4f e7 bd 80 8e 29 3b 48 cd 96 bd a4 34 ac 3d
       -0.112944916 0.002587229 -0.07363373 0.08408478
000050 22 d1 eb 3d 48 14 ab 3d e2 ce ff 3c be 90 35 bd
       0.11514498 0.08353478 0.03122658 -0.04432749
000060 6a f8 cf bb 80 cf 99 3d 70 ff 50 3d 17 a0 39 be
       -0.006346752 0.075102806 0.051024854 -0.18127476
000070 4e 06 aa 3d c1 3d bb bd 06 1e 7c bd 8d 18 25 be
       0.08301984 -0.09142638 -0.06155207 -0.16122647
000080 b1 f6 21 3e ca 81 13 3d 91 ad be bd 7b 3c c2 bd
       0.15816762 0.03601245 -0.09310449 -0.09484192
000090 fa fa 06 3e 63 53 97 3d 3b 3f e9 bc d6 bc 33 bd
       0.13181677 0.07388952 -0.028472533 -0.04388126
0000a0 7c 1b 76 3d 8f a1 38 3d 4a 59 8c bd 1a ac f0 bd
       0.060084805 0.04507595 -0.06852968 -0.11751576
0000b0 09 7d fd 3d 72 22 5f 3b f2 78 cd bd 34 c8 93 bc
       0.12377364 0.003404763 -0.10032834 -0.0180398
0000c0 08 6b c9 bd ce 66 25 3e 67 e6 45 3d 9f fa 80 3c
       -0.09834868 0.16152498 0.048315432 0.015744505
0000d0 84 09 0c 3e 41 d7 24 3e a6 05 05 be 42 5d 0e be
       0.13675505 0.16097738 -0.12990436 -0.13902763
0000e0 2a 17 22 3d 83 d2 25 be dc 11 d5 3d 98 e6 5d bd
       0.039572872 -0.16193585 0.10403797 -0.05417499
0000f0 c5 87 6e 3b 69 a8 2a 3e 70 71 d6 3d ae 84 bb 3d
       0.0036396843 0.16665806 0.10470855 0.09156166
000100 9d 90 41 bd 3e b0 d5 3d d5 6d cd 3d 81 8b fb bc
       -0.047257055 0.10434006 0.100307144 -0.03070617
000110 0e fc d1 3d 9d c0 50 bd a7 c2 6c 3b f9 c0 38 3e
       0.10253154 -0.05096494 0.0036126764 0.18042363
000120 c3 3e 23 3d 74 9e dc bc 3d 0e 3e be 8d f7 89 3d
       0.039854776 -0.026931025 -0.18560119 0.0673667
000130 15 3f 01 3e b9 b7 ee bc f1 e6 3a bd 5d 2c 76 bc
       0.1262172 -0.02914034 -0.0456304 -0.0150252255
000140 44 cb 23 3e 89 78 10 3e 19 59 d2 bd 3c da 87 3d
       0.15995508 0.1410848 -0.102709 0.06633422
000150 0d aa 0d 3e e4 ba 05 3d 7e 07 51 3c d1 18 8d 3d
       0.138344 0.032648936 0.012758134 0.06889499
000160 25 a3 b4 3c 5b 54 fa bd 82 98 16 be 57 66 94 bd
       0.02205045 -0.12223121 -0.14706615 -0.07246082
000170 e7 54 f6 bc ba 57 38 bd e8 20 c1 3c 3f d2 d1 bc
       -0.030069781 -0.045005538 0.023575261 -0.025612948
000180 39 90 ea 3d bd 85 c7 bd da 4b 14 bd 63 50 8d bd
       0.114532895 -0.097423054 -0.03620515 -0.06900098
000190 34 4d f0 bd bd 01 ea 3c 18 aa 89 bd 66 43 87 3d
       -0.11733475 0.028565282 -0.06721896 0.06604652
0001a0 b0 c2 8c 3c de e5 80 bd 2b df 8b bc 53 19 2d bd
       0.017182678 -0.06293844 -0.017074188 -0.04226048
0001b0 80 9c c4 3d e7 13 94 bd f5 d3 0e 3e a8 fa 01 3e
       0.096001625 -0.072303586 0.13948043 0.12693274
0001c0 57 72 dd 3d 87 b9 48 bd 5c 5c f6 bc df 5d 1d 3e
       0.10812824 -0.049005058 -0.030073337 0.1536784
0001d0 39 a8 01 3e 83 17 e4 bd de c9 16 3e 8e 32 05 be
       0.12661828 -0.11137297 0.14725444 -0.13007566
0001e0 c7 ca f2 3d 10 7e 04 be 49 50 9b bd 66 c6 32 3d
       0.11855083 -0.12938714 -0.075836726 0.04364624
0001f0 8b bd f3 bd 9a e8 c1 bd 5c 87 6f bd fa f3 1d bd
       -0.11901387 -0.09468193 -0.058478698 -0.038562752
000200 5f b9 a1 bc 6e 17 a0 3d f4 12 09 be e6 6b e4 3d
       -0.019741712 0.07816969 -0.13386136 0.111533925
000210 5b c9 b7 3c 3c 2a 5a 3d 5f 9e 3a bd 92 07 90 bd
       0.022434881 0.053262934 -0.04556119 -0.07032694
000220 d5 3f b3 3d b3 a7 13 3e 76 d7 16 3e b8 1a b4 bd
       0.08752409 0.14419441 0.1473063 -0.08794159
000230 89 8f 51 bc 78 1b df 3d c2 de cd bd 6d d1 c9 bc
       -0.012790569 0.10893911 -0.10052253 -0.024635995
000240 5a 5d 9f bd c2 72 b7 3d f8 2b 0f 3e 55 6f b4 bc
       -0.07781477 0.08957435 0.13981616 -0.022025743
000250 f4 12 6d 3b 59 af 2c 3d 67 86 2b 3e 66 06 0a be
       0.0036174627 0.042159412 0.16750489 -0.13479003
000260 2b 0a d8 bd 29 82 de 3c 9e fc 13 be a1 5a 3d 3e
       -0.105488144 0.027161675 -0.14451835 0.18491603
000270 10 f5 11 3d ca de 16 3e 17 63 04 bd 1f 65 3b 3d
       0.0356341 0.14733425 -0.032321062 0.045750733
000280 57 a0 c6 bd f4 6e 74 3d 6a ae cd bd 4b 49 68 3b
       -0.09698551 0.059676126 -0.100430325 0.0035444077
000290 23 41 25 bd 80 5d 0d 3e 20 4e 0e be 88 2d 1c bd
       -0.040345322 0.13805199 -0.1389699 -0.03812936
0002a0 b8 37 c7 bc 5e ad 5c bd 50 74 58 3d 3c 76 9f bb
       -0.024318561 -0.053876273 0.0528453 -0.0048663896
0002b0 e0 50 e2 bd ca 5e 14 3d be 64 1c be 9f 7b d3 bc
       -0.11050582 0.03622321 -0.15272805 -0.025815783
0002c0 ed 4e e9 3d 19 26 82 bd 41 fa 52 bd d1 1f 50 3d
       0.11392007 -0.06354923 -0.051508192 0.050811592
0002d0 04 e0 85 3d 07 0e b7 bd ec e3 0e bd a3 5e bf 3c
       0.06536868 -0.089382224 -0.034885332 0.023360556
0002e0 5d d2 09 be 46 fe 19 3e 0e d9 81 bd 73 31 0a be
       -0.13459153 0.15038404 -0.06340228 -0.13495426
0002f0 a0 8e 31 ba b6 77 d2 bd 46 e6 0b 3e c8 e6 b4 3d
       -0.0006773267 -0.10276739 0.13662061 0.088330805
000300 41 44 3f 3d d0 d1 a1 bb a1 42 21 3e a6 5f d4 3d
       0.04669595 -0.0049383417 0.15748073 0.10369806
000310 b7 53 21 3e f4 a4 de bd 50 d7 b4 bd c0 aa 10 bc
       0.15754591 -0.10871306 -0.0883013 -0.0088297725
000320 80 35 57 bd 28 01 b1 3c 2d 33 e1 3d ef 7b 21 3e
       -0.052541256 0.021606997 0.10996089 0.15769933
000330 77 41 b0 bd db a2 ab 3d 19 c8 09 be ec 96 3c 3e
       -0.086062364 0.083806716 -0.13455237 0.18416947
000340 b0 ea 0e be 47 3f c6 bd bc 2d c6 3d 46 b0 93 bb
       -0.13956714 -0.09680038 0.09676692 -0.0045070974
000350 5f a8 bd 3c 4c 7d 82 3d 5c 30 12 be 12 66 b1 b9
       0.023151575 0.06371555 -0.1427626 -0.0003383612
000360 18 9f 28 3e 98 ea 3f 3e a2 00 b1 3c ae c5 47 3c
       0.1646694 0.18741834 0.021606747 0.012193127
000370 f1 32 32 3e 83 f0 df bc bb 69 01 be f4 89 45 3c
       0.17402245 -0.027336365 -0.12637989 0.012056816
000380 ed e3 29 3e c3 19 4a bc e4 0d 16 3e 3e 33 61 3c
       0.16590853 -0.012335244 0.14653736 0.013745127
000390 2b 69 f2 bd 30 be 13 bd 4b f7 1f bd 62 19 06 bb
       -0.118364654 -0.03607005 -0.039054196 -0.0020461907
0003a0 e9 0b 01 3e 18 15 46 3d fc 50 bd 3d 9e eb 4f 3d
       0.126022 0.04835996 0.09243962 0.05076181
0003b0 bc 67 c7 bc fd aa 39 3e 21 17 b1 bc ff 6e 1a 3e
       -0.024341457 0.18131633 -0.021617474 0.15081404
0003c0 08 a9 27 3d f2 ef 86 3d bf 86 d7 bd 24 9f bf 3d
       0.040932685 0.06588735 -0.10523748 0.093565255
0003d0 f7 94 0a 3e 59 03 d0 bc 56 3d a4 3d a4 5a 29 3d
       0.13533388 -0.025392221 0.080195114 0.041346207
0003e0 36 e9 e9 3d 3c 5b 3d bd b0 a9 fa 3d 14 57 19 3e
       0.114214346 -0.046229586 0.122393966 0.14974624
0003f0 6f 4c a5 bd 8f 07 41 bd 34 da 69 bd ae 71 c3 bd
       -0.08071219 -0.04712635 -0.05709286 -0.09543167

sequential_1/dense_2/MatMul_bias f4 [64]
000000 49 ac 57 bc 25 e5 94 3c 00 00 00 00 a9 49 99 3b
       -0.013163635 0.01817567 0.0 0.0046779704
000010 46 c6 1c 3c 55 ea 76 bb 76 2a e7 bb b0 59 4e 3c
       0.009568756 -0.0037676294 -0.0070546223 0.012594625
000020 54 9c a8 bb d9 9f 86 3b 87 99 b3 bb e7 5d 19 3c
       -0.005145589 0.004108411 -0.0054809484 0.009360767
000030 db 01 27 3b ce f2 eb b9 9c bb 23 bc 3f a1 c6 bb
       0.0025483284 -0.00045003596 -0.00999346 -0.0060617025
000040 a6 5c 44 3b 4e 8d 8d bb e6 a8 00 3b c7 b6 48 bc
       0.002996245 -0.0043198233 0.0019631921 -0.012250609
000050 94 1e 87 3b c2 99 3f bc 76 5c 9d 3b e7 fa fa 3b
       0.0041235182 -0.011694374 0.004802282 0.0076593044
000060 66 b1 f1 3b 00 00 00 00 76 16 04 bc 60 3b 80 3c
       0.007375884 0.0 -0.008061996 0.015653312
000070 11 ef 50 3b d9 a1 aa bb 65 fd 14 bc 91 20 19 3c
       0.0031880776 -0.005207282 -0.009093617 0.009346143
000080 21 92 b5 3b 1b e6 8a ba e0 7d 04 3c 22 20 2b bc
       0.0055411016 -0.0010597141 0.008086652 -0.010444673
000090 00 00 00 00 8f d4 32 3c 11 63 de bb 65 60 ef 3b
       0.0 0.010914936 -0.006786712 0.0073051923
0000a0 36 61 9e bb eb ae a5 bb 9a 3f 34 39 6f e8 c0 bb
       -0.004833366 -0.0050562522 0.00017189831 -0.0058870832
0000b0 59 b2 d8 3b c2 a8 9a bb e4 b2 ac 3c 00 00 00 00
       0.0066130576 -0.0047198245 0.021081395 0.0
0000c0 a2 f3 b1 3b 00 00 00 00 e4 02 fe b9 ac a3 83 3a
       0.0054306546 0.0 -0.0004844881 0.0010043285
0000d0 c8 aa 56 bb 99 11 8d 3a 1e f6 10 3c 5e b8 cc 3c
       -0.0032755602 0.0010762691 0.008847741 0.024990257
0000e0 66 62 b6 3b 02 ab e0 ba 8b b6 c2 3b 00 00 00 00
       0.005565929 -0.0017140808 0.005942171 0.0
0000f0 00 00 00 00 43 9f 2f bc 29 8a 0d bc 48 59 90 3b
       0.0 -0.010719123 -0.008638897 0.0044051744

sequential_1/dense_3/MatMul/ReadVariableOp/transpose f4 [1, 64]
000000 fe 0d 49 3b f0 6b 9d bc ec e3 2e be 96 6a 19 bd
       0.0030678506 -0.019216508 -0.17079133 -0.037455164
000010 81 ca 4f be 64 cf 73 3e 15 bd fa 3d b4 41 da bd
       -0.20292093 0.23809582 0.12243096 -0.10657063
000020 c7 1c 36 be 37 cb 16 be 04 ae 34 be 95 cc 38 be
       -0.17784415 -0.14725958 -0.17644507 -0.18046792
000030 05 9e 17 bd 31 95 22 3e 70 35 58 3d db a1 3a 3e
       -0.037015934 0.15877225 0.052785337 0.18225805
000040 ff e1 09 be 98 d4 6d 3e 59 9a 1c bd 67 a0 a8 3b
       -0.13465117 0.2322563 -0.038233135 0.0051460746
000050 f0 9c 80 3e 44 2d 56 3e c1 5c 64 be 3f 94 d4 bd
       0.25119734 0.20915705 -0.22301008 -0.10379838
000060 9f c6 7e be 10 d4 0c 3e f4 5a 0d 3d d9 0a 0a 3e
       -0.24880455 0.1375277 0.034510568 0.134807
000070 15 51 8f be 4b e1 8a 3d e2 43 37 3e 68 e1 8a bd
       -0.27991548 0.067812525 0.17896989 -0.06781274
000080 1d 10 85 be 53 87 24 3e 34 b1 20 be 5e 03 e3 3d
       -0.25988856 0.16067247 -0.15692598 0.110846266
000090 e8 14 d2 bd e1 14 84 be d6 64 39 3d aa f0 a6 3e
       -0.10257894 -0.2579718 0.04526218 0.32605487
0000a0 f0 3d 55 bd 8b fd e8 3d 72 31 33 bd aa 0b 0b 3e
       -0.05206102 0.113764845 -0.043748327 0.13578668
0000b0 30 de 68 be d9 f3 20 3e 48 bc 14 be 38 b2 28 bd
       -0.22741008 0.1571802 -0.14524949 -0.041185588
0000c0 08 2f 15 3e 50 9e 58 bd 01 d5 8c be 38 0d c9 3d
       0.14568722 -0.052885354 -0.2750626 0.098169744
0000d0 e3 ea 34 3e 02 e2 9b be ab e1 f8 bd d8 ef 56 bd
       0.17667727 -0.30445868 -0.12152418 -0.052474827
0000e0 ef cf 85 be 30 7c 46 3e b5 6d 6a bd 50 3e 17 3e
       -0.26135203 0.19383311 -0.05723353 0.14769864
0000f0 54 a9 4e be 86 18 85 3e 07 ea 05 3e 6f a9 8f be
       -0.20181781 0.25995272 0.13077556 -0.28058955
